models/model_672.pth (torch, 540943 bytes, 8 tensors)

linear1.weight f4 [256, 7]
0	0xbdaf64e6	-0.08564167
1	0xbec33518	-0.38126445
2	0x3df2f526	0.118631646
3	0xbde05253	-0.10953202
4	0xbd9a76b4	-0.07542172
5	0xbd990a4b	-0.07472666
6	0xbdd78beb	-0.10524734
7	0x3ddcb6ae	0.10777031
8	0xbc31a4b4	-0.010842491
9	0x3dedeab7	0.11617034
10	0xbd78b110	-0.060715735
11	0xbdf94f0e	-0.121732816
12	0xbceb900e	-0.028755214
13	0xbe3c1e7b	-0.18371002
14	0xbe22cd5a	-0.15898648
15	0xbd476826	-0.048683308
16	0xbcfad4eb	-0.030619105
17	0x3e487b4c	0.19578284
18	0xbcda4bde	-0.026647504
19	0xbe1e454d	-0.15456124
20	0xbc35ac1f	-0.0110884
21	0xbb91da58	-0.0044510774
22	0xbdc864cf	-0.09784853
23	0xbd29a72d	-0.041419197
24	0x3df36406	0.11884312
25	0x3e99bb3c	0.3002566
26	0xbebdc933	-0.37067565
27	0xbf15eafa	-0.5856167
28	0x3e9e6c7e	0.30942148
29	0x3c778dbe	0.015109478
30	0x3d3f2cce	0.04667359
31	0xbd9251f2	-0.07144536
32	0xbeae83d7	-0.3408496
33	0x3d541cc8	0.05178526
34	0x3d210a2a	0.039316334
35	0x3c68b0db	0.014202322
36	0x3c326106	0.01088739
37	0xbe45ebd2	-0.1932824
38	0x3d880b00	0.06642723
39	0x3acbe708	0.0015556524
40	0xbdbe831a	-0.093023494
41	0x3c5fdc83	0.013663414
42	0xbdfe83dc	-0.12427494
43	0xbca83078	-0.020530924
44	0x3e92a3ab	0.28640494
45	0xbe851dcf	-0.25999305
46	0x3f0986ae	0.5372113
47	0xbe4ac950	-0.19803357
48	0xbe11cdb6	-0.14238629
49	0x3e35816e	0.17725155
50	0x3e863108	0.26209283
51	0x3d57ce85	0.052687187
52	0x3e2eb3c3	0.17060761
53	0xbd8a9849	-0.06767327
54	0x3d8312a5	0.064000405
55	0xbda73caf	-0.08165871
56	0x3e065d3e	0.13121507
57	0xbd94d073	-0.07266321
58	0xbd89749e	-0.06711696
59	0x3e0f9758	0.14022577
60	0xbc877538	-0.016535386
61	0xbe0cd455	-0.13752873
62	0xbd22c660	-0.039739966
63	0xbe9e3498	-0.308995
64	0x3daa01cc	0.08301124
65	0xbeaba827	-0.33526728
66	0x3e2d4830	0.16922069
67	0xbd67ebbf	-0.05662131
68	0x3d8bd9b9	0.06828637
69	0x3bed4a5f	0.0072415317
70	0xbe40048c	-0.18751734
71	0xbee39c8a	-0.44455367
72	0x3e12e646	0.14345655
73	0xbda5405c	-0.08068916
74	0xbe1ab300	-0.15107346
75	0xbdc5b051	-0.0965277
76	0xbe02f5ea	-0.12789121
77	0xbe7ee0f5	-0.24890502
78	0x3de0644e	0.109566316
79	0xbe143bf8	-0.14476001
80	0x3d896792	0.067092076
81	0xbd9d54da	-0.076822
82	0xbe66aa2f	-0.22525857
83	0x3d219a02	0.039453514
84	0xbe90259e	-0.281537
85	0xbf015cec	-0.5053241
86	0xbe44bb17	-0.19211994
87	0xbdbd2ca1	-0.09237028
88	0xbe8ce8ec	-0.27521455
89	0x3e1e49b2	0.154578
90	0x3d0f27c9	0.03495005
91	0xbe44365b	-0.1916136
92	0xbdbf1b67	-0.093313985
93	0x3dc7ca55	0.09755389
94	0xbbcb3523	-0.0062014027
95	0x3e607627	0.21920072
96	0xbd8ba98f	-0.0681945
97	0xbd345e7b	-0.044035416
98	0xbca86152	-0.020554218
99	0xbec30d6a	-0.38096172
100	0xbda68ed2	-0.081327096
101	0xbdd8e41f	-0.10590386
102	0xbe2fc246	-0.17163953
103	0x3e01a04e	0.12658808
104	0xbde99c39	-0.1140675
105	0x3d53a8dd	0.051674712
106	0x3dac98aa	0.08427556
107	0x3e3b5f7c	0.18298143
108	0x3e27b720	0.1637845
109	0xbe0f7e28	-0.14012969
110	0xbcc4af8b	-0.024009487
111	0xbc91e27a	-0.017808188
112	0x3e3b01df	0.18262433
113	0x3d34408e	0.044006877
114	0x3e182a09	0.14859785
115	0x3db819c1	0.08989287
116	0x3c2f419e	0.010696797
117	0x3d8b3798	0.06797713
118	0xbc5f819b	-0.01364174
119	0xbbc2e91c	-0.005948199
120	0xbdbf0f60	-0.093291044
121	0xbe005cde	-0.12535426
122	0x3e2f34fa	0.17110053
123	0xbcb85940	-0.022503495
124	0x3d779f4b	0.060454648
125	0xbdff1ac9	-0.12456281
126	0xbe6cff01	-0.23144151
127	0xbe560e4c	-0.20903891
128	0x3edee20c	0.43531835
129	0xbda7ec95	-0.08199421
130	0x3f310412	0.69146836
131	0xbe8c0c01	-0.27352908
132	0xbe2e4212	-0.17017391
133	0x3eabded8	0.33568454
134	0x3e88e698	0.2673843
135	0xbf97cf59	-1.1860152
136	0xbe04b1bf	-0.1295843
137	0x3e8f648e	0.28006405
138	0xbe85b469	-0.26114205
139	0xbcbd3dae	-0.0231007
140	0x3cc368fc	0.023853771
141	0x3dd509e4	0.10402277
142	0x3d910b0c	0.07082185
143	0xbe5b99e9	-0.21445431
144	0x3f28f315	0.65995914
145	0xbdc023d2	-0.09381832
146	0xbd834449	-0.06409509
147	0x3c7800f7	0.015136949
148	0x3e1e7196	0.15473017
149	0x3e088d1a	0.13335076
150	0xbe7486c4	-0.23879534
151	0x3ee94238	0.45558333
152	0xbdce1402	-0.1006241
153	0xbdb631b5	-0.088961996
154	0xbe9be901	-0.30451205
155	0xbd78dbd3	-0.060756516
156	0x3e5752aa	0.21027628
157	0xbe54334d	-0.20722695
158	0x3ee4df80	0.44701767
159	0xbd91878f	-0.07105934
160	0xbe899b8d	-0.26876488
161	0x3e845f46	0.25853938
162	0x3c703f13	0.014663476
163	0x3e221779	0.15829267
164	0x3dbff3e9	0.09372694
165	0xbc43d5ec	-0.011952858
166	0x3dba3013	0.09091201
167	0x3d90660b	0.07050713
168	0xbd484430	-0.048893154
169	0xbe253d02	-0.16136554
170	0xbd8bb1bb	-0.06821009
171	0x3db42a5c	0.08797142
172	0x3d7da1e3	0.061921965
173	0x3ca7457e	0.020418879
174	0xbd472e3a	-0.04862807
175	0xbd90bac4	-0.07066873
176	0x3bc5fcd1	0.006042101
177	0xbd091ad7	-0.033472862
178	0xbd584be9	-0.05280677
179	0x3eafff84	0.3437463
180	0x3d266e23	0.04063238
181	0xbd653190	-0.05595547
182	0x3d8f814d	0.07007084
183	0xbd0beff6	-0.03416439
184	0x3e3529d4	0.17691737
185	0xbe7a37c3	-0.24435334
186	0x3e6ad959	0.22934474
187	0xbdf601bb	-0.12012049
188	0xbe06d288	-0.13166249
189	0xbf0239dc	-0.50869536
190	0xbe9fb3a5	-0.31191745
191	0xbd3bc91a	-0.045846082
192	0x3f0d8610	0.5528269
193	0x3ea47a13	0.32124385
194	0x3e908090	0.28223085
195	0x3e696c89	0.22795309
196	0x3e87bf30	0.26513052
197	0x3cbdcd2b	0.02316912
198	0xbe3dd6a0	-0.18538904
199	0x3c734fd5	0.014850576
200	0x3e9e01e0	0.30860806
201	0xbe2a95a1	-0.16658641
202	0xbd2981ea	-0.04138366
203	0xbc3d9324	-0.011570726
204	0x3e18e4c5	0.14931019
205	0x3d7e46d4	0.062079266
206	0x3daf82d7	0.085698776
207	0xbd991257	-0.07474201
208	0xbe448e87	-0.19194995
209	0xbe8a559c	-0.2701844
210	0xbc8c7a04	-0.017148025
211	0x3dd3bacb	0.10338362
212	0x3d72eae0	0.059306026
213	0x3e016458	0.12635934
214	0xbda1a7bc	-0.07893321
215	0xbe56000c	-0.20898455
216	0x3d0646de	0.032782428
217	0x3e15ca8f	0.14628051
218	0x3e0fb51e	0.14033934
219	0x3d4b4bb3	0.04963274
220	0x3d5e0ff8	0.054214448
221	0xbe67f8ef	-0.22653554
222	0xbd5e0c3e	-0.054210894
223	0xbd45a345	-0.04825141
224	0x3e1ebce5	0.15501745
225	0x3dc58c4f	0.09645902
226	0x3d8959b2	0.06706561
227	0xbdaf9c1b	-0.08574697
228	0xbc1fe31b	-0.009758736
229	0xbdf579d3	-0.11986127
230	0x3cf369f6	0.029713612
231	0x3e6ee87a	0.2333087
232	0x3d815d19	0.06316585
233	0xbded4e80	-0.11587238
234	0xbe01242a	-0.12611452
235	0xbe3539f6	-0.17697892
236	0x3cdfb370	0.027307242
237	0x3da9f446	0.082985446
238	0x3d0685dc	0.032842502
239	0x3e23e5f7	0.16005693
240	0x3e77b408	0.2418977
241	0x3e298a60	0.16556692
242	0xbe3ad9db	-0.18247168
243	0x3d9f217e	0.0777006
244	0xbcfc1968	-0.030773833
245	0x3df87f52	0.121336594
246	0xbc230530	-0.009949967
247	0x3e0fe4d8	0.1405214
248	0x3c06bb40	0.008223355
249	0xbe1b7a3e	-0.1518335
250	0xbd05f2ff	-0.032702442
251	0xbc5bbab9	-0.013411217
252	0xbc0ba8be	-0.008524118
253	0xbde7f650	-0.11326277
254	0xbd1b6b46	-0.0379441
255	0x381fdbb1	3.8113158e-05

linear1.bias f4 [256]
0	0x3e82903d	0.2550067
1	0xbea74a84	-0.32674038
2	0xbca8bbf6	-0.02059744
3	0x3e8874ed	0.26651707
4	0xbecf80cf	-0.4052796
5	0x3e21690b	0.15762727
6	0x3f34c2cf	0.70609754
7	0x3d1f3af4	0.03887458
8	0xbebdc091	-0.3706098
9	0xbe108a12	-0.1411517
10	0x3ef84040	0.4848652
11	0xbe62b0a2	-0.22137693
12	0xbeeca219	-0.4621742
13	0x3ed174b5	0.40909353
14	0xbf129f0c	-0.57273936
15	0xbe63c368	-0.2224251
16	0x3d370cc1	0.044689897
17	0x3e8b2fe7	0.27184984
18	0x3ee3a03c	0.44458187
19	0x3d8f6a68	0.07002717
20	0x3f47d442	0.78058255
21	0x3f2ee9d6	0.68325555
22	0xbce314a5	-0.027719805
23	0x3db40538	0.08790058
24	0xbea0babf	-0.31392476
25	0xbe5af745	-0.21383388
26	0x3e524fd2	0.20538262
27	0xbf014f14	-0.5051129
28	0xbe050fa6	-0.1299425
29	0x3d5afac9	0.053461824
30	0xbe636a46	-0.22208509
31	0x3e452bad	0.19254942
32	0xbed54297	-0.41652367
33	0xbf249958	-0.64296484
34	0x3f03d478	0.51496077
35	0xbe3233eb	-0.17402618
36	0xbd28c767	-0.04120579
37	0x3e3aa686	0.18227586
38	0x3e03bc77	0.12864862
39	0x3f1ad0ed	0.60475045
40	0x3f4bd58e	0.79622734
41	0xbf342b13	-0.70378226
42	0x3ddedc17	0.108818226
43	0x3e699e55	0.22814305
44	0x3e6b0055	0.22949345
45	0x3f2166ad	0.63047296
46	0x3f080ffd	0.53149396
47	0x3f289ef6	0.65867555
48	0xbf312eb9	-0.6921192
49	0x3f34c4be	0.70612705
50	0x3e5248dc	0.20535606
51	0x3e9520e6	0.29126662
52	0xbe751151	-0.23932387
53	0xbdbd9514	-0.0925695
54	0x3f1b81f7	0.60745186
55	0x3dd85ab1	0.10564173
56	0xbe723fc5	-0.23657139
57	0x3eada80d	0.33917275
58	0x3f23e380	0.6401901
59	0xbf178e26	-0.59201276
60	0xbea1ce5b	-0.3160275
61	0xbe4a8ee1	-0.19781066
62	0x3e2df6ae	0.16988632
63	0x3e9f4905	0.31110397
64	0xbe7b9bbf	-0.24571131
65	0xbecd6bf2	-0.40121418
66	0xbe2a1836	-0.16610798
67	0xbc839b76	-0.01606534
68	0xbc72c32c	-0.01481704
69	0x3f588a47	0.84585994
70	0x3e56f7f2	0.20993021
71	0xbedada27	-0.42744562
72	0xbe3f2b92	-0.18668965
73	0x3eeedf96	0.46654958
74	0xbeafa43d	-0.3430499
75	0xbf37fa3b	-0.71866196
76	0x3cb85076	0.022499304
77	0xbecac175	-0.3960072
78	0x3f25e45d	0.6480158
79	0x3e15634b	0.14588659
80	0x3e806552	0.250773
81	0x3de977a4	0.11399773
82	0x3f20f50b	0.62873906
83	0xbe09e067	-0.13464509
84	0xbf05604c	-0.5210006
85	0x3ef86b3c	0.48519313
86	0xbdde3607	-0.10850149
87	0xbddafc63	-0.1069267
88	0xbedd1b9f	-0.43185136
89	0x3e1352eb	0.143871
90	0x3f064400	0.5244751
91	0xbdf7a119	-0.12091274
92	0x3d47b7b4	0.048759177
93	0x3f044e2c	0.5168178
94	0x3e1f8cb6	0.1558102
95	0x3e854b4b	0.26034006
96	0x3ea8cb46	0.32967585
97	0xbea97ed5	-0.33104578
98	0xbe06c346	-0.13160428
99	0x3e89aa28	0.2688763
100	0xbe1c379b	-0.15255587
101	0xbe64839b	-0.22315829
102	0x3e28e456	0.16493353
103	0x3ed666c0	0.41875267
104	0xbd5ac412	-0.053409643
105	0x3f1eabe5	0.6198104
106	0xbf033b00	-0.512619
107	0x3d846130	0.064638495
108	0x3e7c649a	0.24647751
109	0x3d9d7eeb	0.07690223
110	0xbf02aaee	-0.5104207
111	0x3d2fbd6a	0.04290525
112	0xbc44fccc	-0.012023162
113	0x3e2dfe95	0.16991647
114	0x3e2eea14	0.17081481
115	0x3e887c52	0.2665735
116	0x3e4384ca	0.19093624
117	0x3e1f5671	0.15560319
118	0x3e05a95c	0.13052887
119	0xbeaedbbb	-0.34152016
120	0xbedb977b	-0.42889008
121	0xbdbb15b8	-0.09135002
122	0x3f2fa075	0.68604213
123	0x3e85b991	0.26118138
124	0xbe117378	-0.14204204
125	0x3d88d1df	0.06680655
126	0x3f201f84	0.6254809
127	0x3e19e113	0.15027265
128	0xbd899d6d	-0.0671948
129	0xbe3f9b36	-0.18711552
130	0xbd11e5f0	-0.035619676
131	0xbe1d8145	-0.15381344
132	0x3e3ac3c2	0.18238738
133	0x3e455fce	0.19274828
134	0xbd97dfc9	-0.074157305
135	0xbe5a4559	-0.21315517
136	0x3ef5dcbf	0.48019978
137	0xbead86d5	-0.3389193
138	0x3ed7cbe0	0.42147732
139	0x3e4a436c	0.19752282
140	0x3f28fa73	0.66007155
141	0x3e299dbc	0.16564077
142	0x3e7e8df2	0.24858835
143	0xbe9ec711	-0.3101125
144	0x3e3c1c7b	0.1837024
145	0xbeb6090c	-0.35553777
146	0xbea7e47a	-0.327915
147	0xbe93a2f7	-0.2883527
148	0xbec8a9e8	-0.39192128
149	0xbeb02881	-0.34405902
150	0x3ebdb8e5	0.37055126
151	0xbe2315e5	-0.15926321
152	0xbd5b3e66	-0.053526305
153	0x3ede1d8f	0.43381926
154	0x3ebc7490	0.3680768
155	0x3ede9cb2	0.43478924
156	0x3ea2cb3e	0.31795686
157	0xbe28384d	-0.16427727
158	0x3e4fdb09	0.20298399
159	0xbee9936b	-0.45620283
160	0xbaab6e66	-0.0013079166
161	0xbed4dbed	-0.4157404
162	0xbe289365	-0.16462477
163	0x3f34342e	0.7039212
164	0xbe10490c	-0.14090365
165	0x3f1a6079	0.60303456
166	0x3d89c244	0.06726506
167	0x3caecd8c	0.021338247
168	0x3e0eed4c	0.13957709
169	0xbe45ef4c	-0.19329566
170	0xbdb10ffb	-0.08645626
171	0xbd96f66f	-0.07371222
172	0x3e66a75b	0.22524779
173	0x3f0f9eed	0.56101876
174	0xbe07ce25	-0.13262232
175	0xbddd5348	-0.108069
176	0xbe8e8a45	-0.27839866
177	0x3e8a6f49	0.2703803
178	0xbeb65c0b	-0.35617098
179	0x3eca0b86	0.39461917
180	0x3f3aa46e	0.7290715
181	0x3f0881b9	0.5332294
182	0xbda4b5b9	-0.08042473
183	0xbdc3c720	-0.095594645
184	0xbe58d838	-0.21176231
185	0x3ccefc1b	0.025266698
186	0xbf1a27c1	-0.6021691
187	0x3dcf799c	0.10130617
188	0x3e00c33c	0.12574476
189	0xbe2311d7	-0.15924774
190	0x3e7cb832	0.2467964
191	0xbde2357b	-0.11045357
192	0xbd81c416	-0.063362285
193	0xbe71eadd	-0.2362475
194	0x3e099a56	0.1343778
195	0xbe6242ae	-0.22095749
196	0xbeb604c8	-0.35550523
197	0xbe443260	-0.19159842
198	0x3ede9b3a	0.43477803
199	0x3f5bbf8e	0.85839164
200	0x3ec0ccb0	0.37656164
201	0x3ce1b48b	0.02755191
202	0xbcead487	-0.028665794
203	0xbef66bb4	-0.48129046
204	0x3ed30289	0.41212872
205	0x3f14e856	0.58167017
206	0xbde18e9b	-0.11013528
207	0xbe3ea13f	-0.18616198
208	0xbe846887	-0.25860998
209	0xbe82d540	-0.25553322
210	0xbe88f122	-0.2674647
211	0xbe375f12	-0.1790736
212	0xbea45cd9	-0.32102087
213	0x3e8cff75	0.27538648
214	0xbe1c9be5	-0.15293844
215	0xbe1b1852	-0.15145996
216	0xbe8a6b59	-0.27035025
217	0x3e7b9e1c	0.24572033
218	0x3f1d4403	0.614319
219	0xbe95a8ec	-0.2923044
220	0x3edcd031	0.43127587
221	0xbe5f1e38	-0.21788871
222	0x3e2556d0	0.16146398
223	0xbe13f12a	-0.14447466
224	0x3f4ba1c5	0.79543716
225	0x3ef1e0bc	0.4724177
226	0xbf13dafc	-0.5775602
227	0xbe3835e1	-0.17989303
228	0x3dba69dc	0.09102222
229	0x3da46321	0.0802672
230	0xbe814c5b	-0.25253567
231	0xbe8002ad	-0.2500204
232	0xbe1ab052	-0.15106323
233	0xbe7715cf	-0.24129413
234	0xbf090034	-0.53515935
235	0x3f64eb79	0.894218
236	0x3dc1ccd1	0.09462894
237	0x3e7e4ee5	0.24834783
238	0xbe927bad	-0.28609982
239	0x3d4b7b58	0.049678177
240	0x3e442cda	0.19157735
241	0xbee5596a	-0.4479478
242	0x3f3d772c	0.74009967
243	0xbe8bd87f	-0.2731361
244	0xbd5ab593	-0.05339582
245	0x3e523d8b	0.2053129
246	0x3eb2fc7e	0.3495826
247	0x3e59c6bd	0.21267219
248	0xbf10a317	-0.56498855
249	0xbf190a6a	-0.59781516
250	0x3e5f5324	0.2180906
251	0xbf11c6cb	-0.5694396
252	0x3dacd323	0.08438709
253	0x3d2a71eb	0.041612547
254	0xbd49a8c0	-0.0492332
255	0x3e3b44ba	0.18287936

linearmid.weight f4 [256, 256]
0	0x3e1a03fc	0.15040582
1	0x3ebb5683	0.3658944
2	0x3d483910	0.048882544
3	0xbe2d0f9e	-0.16900489
4	0xbdce49dd	-0.10072682
5	0xbcf89fac	-0.030349575
6	0x3e1aa449	0.15101732
7	0x3e4b465e	0.19851062
8	0x3ba21460	0.0049462765
9	0xbd3b80e8	-0.04577723
10	0xbafa4adb	-0.0019095795
11	0x3d98f84b	0.07469233
12	0xbe7a1204	-0.24420935
13	0x3d1a730f	0.037707385
14	0xbd7114ba	-0.058857657
15	0x3de93843	0.11387684
16	0xb9c7f736	-0.00038140424
17	0x3e1e2ca2	0.15446714
18	0x3d4f3981	0.05059195
19	0xbf006a9e	-0.50162685
20	0x3e2a2e95	0.16619332
21	0x3ddc0579	0.10743231
22	0x3d6d24fa	0.05789659
23	0xbc81f89e	-0.01586562
24	0x3d131479	0.035908196
25	0xbe19cec2	-0.15020278
26	0x3d39c691	0.045355383
27	0xbe5816be	-0.21102425
28	0xbe3bb6b2	-0.18331411
29	0x3e31dbfb	0.17369072
30	0x3d9d24be	0.07673024
31	0x3e3fe234	0.18738633
32	0x3d98d64a	0.074627474
33	0xbd879782	-0.06620695
34	0xbdc8f38e	-0.09812079
35	0xbda2fb0c	-0.0795804
36	0xbe3e9f0e	-0.18615362
37	0x3e3856e5	0.18001898
38	0x3d3b9515	0.045796473
39	0xbe12b573	-0.1432703
40	0x3e9eb3ff	0.309967
41	0xbf061e9a	-0.52390444
42	0x3ebe1674	0.37126505
43	0xbe454da1	-0.19267894
44	0x3c7bf463	0.015378091
45	0x3e2b7ea7	0.16747533
46	0x3de2e6a2	0.11079146
47	0x3dcc9f46	0.099913165
48	0x3d029404	0.03187944
49	0xbe385e41	-0.18004705
50	0x3df34eb9	0.118802495
51	0x3d3d1123	0.04615892
52	0x3e66beee	0.22533771
53	0xbba874f0	-0.005140893
54	0xbc015268	-0.007893182
55	0xbd815989	-0.063159056
56	0xbc48fdd0	-0.012267545
57	0x3e02f2ef	0.12787984
58	0x3e890d44	0.26767933
59	0xbe09e4dd	-0.1346621
60	0xbd1d4ed2	-0.038405247
61	0xbc98dbbf	-0.01865947
62	0x3bb621c0	0.0055582225
63	0x3de96265	0.113957204
64	0xbdceb960	-0.10093951
65	0xbf20fa3b	-0.6288182
66	0x3d0b9922	0.034081586
67	0xbd36bdbd	-0.044614542
68	0x3d639330	0.05556029
69	0x3d61943e	0.055073015
70	0x3e3281ae	0.17432281
71	0xbdae1020	-0.08499169
72	0xbf3016ff	-0.6878509
73	0x3e2ce99f	0.16885994
74	0xbe4587da	-0.19290105
75	0xbdc591be	-0.09646939
76	0x3d1e0aa0	0.03858435
77	0xbeff39fd	-0.4984893
78	0x3d8c973a	0.06864782
79	0x3c0b332f	0.00849609
80	0x3df325cb	0.11872443
81	0x3e9baf32	0.304071
82	0x3e62676b	0.22109763
83	0xbd42b9cf	-0.047540482
84	0xbeb8b003	-0.36071786
85	0x3e6e5f5c	0.23278564
86	0x3e05e5e0	0.13075972
87	0xbe4fdf5e	-0.20300052
88	0xbe2960b4	-0.16540796
89	0x3d40b93a	0.047051646
90	0xbc43a1ba	-0.011940414
91	0xbd226f71	-0.03965706
92	0xbe1512c4	-0.1455794
93	0x3e1a2bd0	0.15055776
94	0xbdb95543	-0.090494655
95	0x3df67c93	0.120354794
96	0x3e60885b	0.21927015
97	0xbddf8163	-0.109133504
98	0x3d95352f	0.072855346
99	0x3e8590bc	0.26086986
100	0x3e8fa940	0.28058815
101	0xbdd2b2ca	-0.102880076
102	0xbd2d6926	-0.042336605
103	0xbc030cbc	-0.007998642
104	0xbcee5edb	-0.029097965
105	0xbd45778f	-0.048209723
106	0xbe2219f7	-0.15830217
107	0xbcc704b4	-0.024294235
108	0x3d24884e	0.040169053
109	0xbe313b96	-0.17307886
110	0xbccbaad1	-0.024861725
111	0xbe048de0	-0.12944746
112	0xbc347675	-0.0110145705
113	0x3dda722b	0.10666307
114	0x3dd0a129	0.10186989
115	0x3e3edbad	0.18638487
116	0x3dc135d2	0.094340935
117	0x3e789226	0.24274501
118	0xbe1e08cf	-0.15433048
119	0xbde95041	-0.1139226
120	0xbe57db27	-0.21079694
121	0x3deb9a8e	0.11504088
122	0x3d74dbcb	0.059779923
123	0xbe419d42	-0.18907645
124	0x3e0aa12c	0.13538045
125	0xbc2c6cf4	-0.010524023
126	0xbbe8d8a8	-0.0071059056
127	0x3e5ae21d	0.21375318
128	0x3e793e06	0.24340066
129	0xbdc8ba0e	-0.09801112
130	0xbcc965a8	-0.024584606
131	0x3d90b291	0.07065309
132	0xbd296e3b	-0.04136489
133	0xbd0220aa	-0.031769432
134	0x3e17f72e	0.14840385
135	0xbdfe9167	-0.12430077
136	0x3d996bea	0.07491286
137	0x3d45d56a	0.04829923
138	0x3d694eac	0.056959793
139	0xbd20c846	-0.039253496
140	0x3da6e468	0.08149034
141	0x3e4936d5	0.19649823
142	0x3d991e57	0.0747649
143	0xbf172cd3	-0.5905277
144	0x3da72394	0.08161083
145	0x3dca1c8b	0.098687254
146	0x3d84838a	0.064704016
147	0xbdc69926	-0.096971795
148	0xbe15d601	-0.14632417
149	0x3e15cdee	0.14629337
150	0x3dd56807	0.10420232
151	0xbe198553	-0.14992265
152	0xbf355a06	-0.7084049
153	0xbdd7bc47	-0.10533958
154	0x3dca1484	0.09867194
155	0xbbcedfee	-0.0063133156
156	0x3c13160e	0.008977426
157	0xbb3ac321	-0.0028497654
158	0xbf0114de	-0.50422466
159	0xbd2e59d8	-0.04256615
160	0xbf642aea	-0.8912798
161	0x3e4f2896	0.20230326
162	0xbe27fd73	-0.16405277
163	0xbdbbbbf6	-0.0916671
164	0xbe2895da	-0.16463414
165	0x3ddb9dc4	0.10723451
166	0x3de4675a	0.11152525
167	0x3e552681	0.2081547
168	0x3e7a15e5	0.24422415
169	0xbe0f362e	-0.13985512
170	0x3e919a1d	0.28437892
171	0x3dbe974f	0.093062036
172	0x3e79acb7	0.24382292
173	0x3e81a2a4	0.25319397
174	0xbd839958	-0.064257324
175	0x3e0d0049	0.1376964
176	0xbd0ada08	-0.033899337
177	0xbcce8d9c	-0.025214009
178	0xbdc1c0e6	-0.094606206
179	0xbe0d1268	-0.13776553
180	0x3b1d5bf6	0.0024011112
181	0x3e2b1daa	0.16710535
182	0xbf57fb52	-0.8436786
183	0xbcc4ee19	-0.024039315
184	0x3d0f81dd	0.035035957
185	0x3d4a4702	0.049384125
186	0xbe560394	-0.20899802
187	0x3e854002	0.26025397
188	0xba61a679	-0.0008607875
189	0xbdfc7698	-0.123273075
190	0xbba5c329	-0.0050586653
191	0xbdecc984	-0.115618736
192	0xbd14a583	-0.036290657
193	0xbe6feac6	-0.23429403
194	0x3c6a0fb0	0.014285967
195	0xbce8e0ab	-0.028427443
196	0x3d4a678a	0.04941515
197	0xbe2a0b08	-0.1660577
198	0x3dc6cc83	0.09706976
199	0x3dfb4f05	0.12270931
200	0x3de68796	0.1125633
201	0x3e6edc40	0.23326206
202	0x3d8d21c7	0.06891208
203	0xbd0fcf54	-0.035109833
204	0x3d850bd6	0.06496398
205	0xbc7292c6	-0.014805501
206	0xbe43b992	-0.19113758
207	0xbcbf923c	-0.02338516
208	0xbdee10cb	-0.11624297
209	0x3d7f338e	0.062305026
210	0x3e06a3d0	0.13148427
211	0xbd9b8363	-0.075934194
212	0xbd839da8	-0.06426555
213	0xbdabb69a	-0.08384438
214	0xbd5decf8	-0.05418107
215	0xbd79bc2b	-0.060970467
216	0xbd88c987	-0.06679063
217	0xbf3ebbc1	-0.7450524
218	0x3c6bae3b	0.0143848015
219	0x3d448df0	0.047986925
220	0xbe41cd84	-0.18926054
221	0xbf57f993	-0.84365195
222	0x3e3875bd	0.18013664
223	0xbe006356	-0.12537894
224	0x3df7cfce	0.121001825
225	0x3defb97b	0.117052995
226	0xbe03b9a0	-0.12863779
227	0x3cbe36c9	0.023219483
228	0x3e849b35	0.25899664
229	0xbe2a30d8	-0.16620195
230	0x3dc66227	0.0968669
231	0xbcd3893c	-0.025822274
232	0xbf07c97c	-0.53041816
233	0xbe5a4373	-0.21314792
234	0x3e3ad2fe	0.1824455
235	0x3e24b854	0.1608594
236	0xbd1c5434	-0.03816624
237	0xbe55e003	-0.20886235
238	0x3e40275c	0.18765014
239	0xbe1eeabb	-0.1551923
240	0xbd146352	-0.03622753
241	0xbd8246d4	-0.06361166
242	0x3e50413f	0.2033739
243	0x3dbfc5f4	0.093639284
244	0xbe4536dc	-0.19259208
245	0x3dea5f03	0.11443903
246	0xbe81a566	-0.25321501
247	0xbe240538	-0.16017616
248	0xbd66d444	-0.056354776
249	0xbeacd951	-0.3375955
250	0xbe134fdd	-0.14385934
251	0xbd513b60	-0.051082015
252	0x3da07ff8	0.07836908
253	0xbdf93fa6	-0.12170343
254	0x3d978111	0.07397664
255	0x3d9d43d5	0.076789536

linearmid.bias f4 [256]
0	0x3e947f22	0.29003245
1	0xbce39cd2	-0.027784739
2	0xbe664673	-0.22487812
3	0x3d2b3981	0.041802887
4	0xbe775872	-0.24154833
5	0xbce944c7	-0.028475178
6	0xbd5df92c	-0.054192707
7	0xbde928bd	-0.11384723
8	0x3d48c184	0.049012676
9	0xbd7e8537	-0.062138762
10	0x3c752fa4	0.014964972
11	0x3d38b4f8	0.04509446
12	0xbd8e70db	-0.06955119
13	0x3d797a93	0.06090791
14	0xbccee0ec	-0.025253735
15	0x3ed99699	0.4249771
16	0xbe8233ad	-0.2543005
17	0x3aee3cee	0.0018176117
18	0xbd144f30	-0.03620833
19	0xbe2c643a	-0.16835108
20	0x3eb9cf25	0.3629085
21	0x3defdc7a	0.117119744
22	0x3e906486	0.28201693
23	0x3d21f1b8	0.03953716
24	0x3cdb8275	0.026795605
25	0xbb819c98	-0.003955435
26	0xbd81a747	-0.06330734
27	0xbce6f6d1	-0.028193863
28	0xbdec6963	-0.115435384
29	0xbe5c8c27	-0.21537839
30	0xbc8d8f04	-0.01728011
31	0x3c1f6d6b	0.009730677
32	0xbb3572fa	-0.002768694
33	0x3b29de72	0.0025919941
34	0xbdbb0890	-0.091324925
35	0x3d972e90	0.07381928
36	0x3cb2c31c	0.021821551
37	0xbd45b73a	-0.04827044
38	0xbc9e8636	-0.019351106
39	0xbd00eea5	-0.03147759
40	0xbce27bd2	-0.027646933
41	0xbd21012e	-0.039307766
42	0x3eda76b2	0.42668682
43	0x3cd417ec	0.025890313
44	0x3e8854fb	0.26627335
45	0x3e1702fd	0.14747234
46	0xbca5dd8c	-0.020247243
47	0xbe4f0dcd	-0.20220108
48	0xbde77db2	-0.11303271
49	0x3da153fc	0.07877347
50	0xbd32e4cc	-0.04367523
51	0xbd9e775e	-0.07737611
52	0xbdb37340	-0.087622166
53	0xbdd55ce7	-0.1041811
54	0xbd997f9c	-0.07495043
55	0xbcb875e8	-0.02251716
56	0xbd977a35	-0.07396356
57	0xbcc6cce8	-0.024267629
58	0x3e0cb8da	0.1374239
59	0xbc213bd7	-0.009840927
60	0x3de6bb60	0.11266208
61	0xbd1e78ad	-0.038689304
62	0xbd2690a3	-0.04066528
63	0x3c606e86	0.013698226
64	0xbdc9faca	-0.09862287
65	0x3e74eaca	0.2391769
66	0x3d0c74ec	0.034291193
67	0xbdb8553c	-0.09000632
68	0x3df00e2f	0.11721455
69	0xbcfa3a71	-0.030545445
70	0x3f09a7e8	0.5377183
71	0x3c9f0cec	0.019415341
72	0x3cb74e3a	0.022376169
73	0xbe3971a0	-0.18109751
74	0xbdd11c02	-0.1021042
75	0xbdf4b813	-0.11949172
76	0xbe8f3708	-0.27971673
77	0x3e506d31	0.20354153
78	0xbd07505a	-0.033035614
79	0x3d82c0d1	0.06384433
80	0x3dde62d1	0.108586915
81	0x3c0c6a23	0.008570227
82	0x3dc04c80	0.09389591
83	0xbdb743a6	-0.0894845
84	0xbe84f2c0	-0.25966454
85	0x3b0cf370	0.0021507405
86	0x3ce51130	0.027962297
87	0x3e1f43e4	0.15553242
88	0xbd944077	-0.07238858
89	0x3c59894c	0.013277363
90	0xbe305646	-0.1722041
91	0xbdac76e5	-0.08421115
92	0x3e13d120	0.14435244
93	0xbe044366	-0.12916335
94	0xbd5e9452	-0.054340668
95	0x3ec34c9c	0.38144386
96	0xbdaccb79	-0.08437247
97	0x3d55557a	0.05208347
98	0x3eea226a	0.4572938
99	0xbd34e8f7	-0.044167485
100	0xbd8fbf22	-0.070188776
101	0xbc9fec6a	-0.01952191
102	0xbd6953b2	-0.056964584
103	0xbdf0a700	-0.11750603
104	0x3c88966d	0.016673291
105	0x3e238cbf	0.15971659
106	0xbd982937	-0.07429736
107	0xbb193d2a	-0.0023382404
108	0xbd1e9c7b	-0.03872345
109	0xbd884b2a	-0.066549614
110	0x3dd5021a	0.104007915
111	0xbd990304	-0.07471278
112	0x3daed5db	0.085368834
113	0xbe2d1df8	-0.16905963
114	0xbdc40de1	-0.0957296
115	0xbda37608	-0.07981497
116	0x3d6b5a6a	0.057459272
117	0x3d3f0dc0	0.046643972
118	0xbc96e2ab	-0.01841863
119	0x3c857772	0.016292308
120	0xbdaa4d90	-0.08315575
121	0xbd9a1d4d	-0.0752512
122	0x3e22ee91	0.15911318
123	0xbd001352	-0.031268425
124	0x3e244f76	0.16045937
125	0x3d96362f	0.073345535
126	0xbd5e28b0	-0.05423802
127	0xbe1d4c12	-0.1536105
128	0x3d0bb073	0.034103822
129	0xbe1e1f78	-0.15441692
130	0xbd8d25d0	-0.06891978
131	0xbdbab9d8	-0.09117478
132	0x3e2943bf	0.1652975
133	0xbc3dff19	-0.011596465
134	0x3eeeb4bb	0.4662226
135	0x3e0efc04	0.13963324
136	0x3cd5b66b	0.02608796
137	0x3f081af7	0.53166145
138	0xbc589ed2	-0.013221459
139	0x3f031a28	0.51211786
140	0x3c3a3055	0.011364062
141	0x3c1d4d67	0.009600974
142	0x3e992a07	0.29914877
143	0xbcba4b29	-0.022740917
144	0x3f0fe8fe	0.5621489
145	0xbe8c836f	-0.27444026
146	0x3d6c35b9	0.05766842
147	0x3d338f14	0.04383762
148	0x3d038632	0.0321104
149	0xbd87d111	-0.06631673
150	0xbd72efb6	-0.059310637
151	0xbd39020c	-0.045167968
152	0x3b431ddf	0.0029772443
153	0xbd760121	-0.06005967
154	0xbe649a60	-0.22324514
155	0xbd811bef	-0.06304156
156	0xbd21bf5f	-0.039489146
157	0x3ed184a9	0.40921524
158	0x3cc1a290	0.023637086
159	0xbd26b99f	-0.040704366
160	0x3dfe362b	0.124126755
161	0xbdc3e8cd	-0.095658876
162	0xbd5be284	-0.05368282
163	0x3f1722e9	0.59037644
164	0x3c469718	0.0121209845
165	0x3dbbd384	0.09171203
166	0xbdaa3ef7	-0.08312791
167	0xbe8aa054	-0.27075446
168	0x3caa2ae1	0.0207724
169	0xbd6021ba	-0.054719664
170	0x3cfd89ed	0.030949557
171	0xbd6b90b6	-0.057511054
172	0xbbdf96ba	-0.006823388
173	0xbd08e87e	-0.033424847
174	0xbd98a7d6	-0.07453887
175	0x3bb07ad0	0.005385734
176	0xbd2201e5	-0.039552588
177	0x3e0a7cfe	0.13524243
178	0xbd4d5ac9	-0.050135408
179	0xbc93dabd	-0.018048638
180	0xbca4ca4d	-0.020115996
181	0xbdb0cf13	-0.08633246
182	0xbd7a60fd	-0.06112765
183	0x3f0143aa	0.5049387
184	0xbd4377fc	-0.047721848
185	0x3e1cb976	0.15305123
186	0x3c764ed6	0.015033444
187	0x3e48387d	0.19552799
188	0x3f011c31	0.5043364
189	0xbbec6786	-0.0072144894
190	0xbe61040c	-0.219742
191	0xbc6268d3	-0.013818937
192	0x3cb147ee	0.021640744
193	0xbe31aef6	-0.17351899
194	0xbc7bc68d	-0.015367162
195	0x3e01a96d	0.12662287
196	0xbd3babd9	-0.045818184
197	0xbc467ae9	-0.012114265
198	0x3e3e7177	0.18597971
199	0x3dc2bc95	0.095086254
200	0xbd7378d1	-0.05944139
201	0x3d079a03	0.03310586
202	0xbc16bfce	-0.009201003
203	0x3d5ba976	0.053628407
204	0x3e28d6a1	0.16488124
205	0x3e41106c	0.1885392
206	0x3c65ca8d	0.014025343
207	0xbd1be9c8	-0.038064748
208	0x3e177f41	0.14794637
209	0x3cc2d74b	0.0237843
210	0xbcb79a31	-0.022412391
211	0x3e0e0616	0.13869509
212	0xbcbd2ee8	-0.023093656
213	0x3d5cb530	0.05388373
214	0x3ec4e783	0.3845788
215	0xbc5cde85	-0.013480787
216	0x3dbdedd1	0.092738755
217	0x3e7ad031	0.24493481
218	0xbdb8364f	-0.089947335
219	0x3c7bd9f0	0.015371785
220	0xbbfc6dfe	-0.007703542
221	0xbd4916c1	-0.049093965
222	0x3cca458d	0.024691368
223	0xbe0bb1ad	-0.13641997
224	0x3cf35829	0.029705124
225	0x3eefd2a5	0.46840397
226	0x3cd74351	0.026277216
227	0xbc767b3d	-0.015044031
228	0xbcf5b030	-0.02999124
229	0xbd3827d1	-0.044959847
230	0xbd2a4668	-0.04157105
231	0x3e1c39eb	0.15256469
232	0x3e1a57f7	0.15072618
233	0x3cdc470f	0.026889352
234	0x3ea7e07d	0.32788458
235	0x3c2b9543	0.0104725985
236	0xbdb15dcc	-0.086604685
237	0x3c35ea72	0.011103259
238	0x3f1d247c	0.61383796
239	0xbe3fc815	-0.18728669
240	0x3efe1c42	0.49630934
241	0x3e193249	0.14960589
242	0xbe518d2d	-0.2046401
243	0x3e843516	0.2582175
244	0x3edec82e	0.435121
245	0x3cc040fd	0.023468489
246	0xbd03fb05	-0.032221813
247	0xbca776d4	-0.020442404
248	0x3cca6240	0.024705052
249	0x3b477fce	0.0030441168
250	0xbcf935fd	-0.030421251
251	0x3eee7838	0.46576095
252	0xbd1ad982	-0.037805088
253	0x3f02741e	0.5095843
254	0xbe6b80ce	-0.22998354
255	0x3e137172	0.14398745

linearmid2.weight f4 [256, 256]
0	0x3e99fdf4	0.30076563
1	0x3d727ee0	0.05920303
2	0xbda8d1ff	-0.082431786
3	0xbda0c2da	-0.07849665
4	0x3c9d64b0	0.01921305
5	0x3d35afb3	0.044357013
6	0x3dc6187f	0.09672641
7	0x3d48b945	0.04900481
8	0x3d8af25b	0.06784507
9	0xbe305ec4	-0.1722365
10	0xbb0d90c0	-0.002160117
11	0xbd558651	-0.052130047
12	0x3dab5dd6	0.08367507
13	0x3e4e853b	0.20168011
14	0xbc967ecc	-0.018371008
15	0x3e0d0db0	0.13774753
16	0xbb4c8762	-0.0031208624
17	0x3d8ba70b	0.0681897
18	0xbd883a33	-0.066517256
19	0x3df5f404	0.12009433
20	0x3ac3b6fe	0.0014931855
21	0xbe01a6b4	-0.12661248
22	0x3d7472e8	0.059679896
23	0x3d3a4406	0.04547503
24	0x3db8e25e	0.09027551
25	0x3d13b65e	0.03606259
26	0xbd1e4135	-0.038636405
27	0xbcfd1201	-0.030892374
28	0x3e120b90	0.14262223
29	0xbd92949f	-0.071572535
30	0x3d407e92	0.046995707
31	0x3d509e74	0.050932363
32	0xbd1d3e56	-0.038389526
33	0xbbe51130	-0.0069905743
34	0x3d58172f	0.052756485
35	0xbdc33567	-0.0953167
36	0x3db3562b	0.087566696
37	0xbd6f29b5	-0.058389384
38	0xbd5d43ce	-0.05401974
39	0xbca02bc2	-0.019552115
40	0x3ba26540	0.0049559176
41	0xbdfd2a18	-0.12361544
42	0x3de67e73	0.11254587
43	0xbda7da8c	-0.081959814
44	0x3db7e1d6	0.08978622
45	0xbc01622c	-0.007896941
46	0xbd639003	-0.055557262
47	0xbc0b1508	-0.008488901
48	0x3cb8962b	0.022532543
49	0xbd0f3104	-0.034958854
50	0x3dc2bfcd	0.09509239
51	0x3d5149ce	0.051095776
52	0xbda6db8f	-0.08147346
53	0xbe090b9e	-0.13383338
54	0xbc948551	-0.018129976
55	0x3d957789	0.0729819
56	0x3b8af009	0.00424004
57	0x3d350580	0.0441947
58	0x3c988615	0.018618623
59	0x3d654d68	0.055982023
60	0x3cfa4503	0.030550485
61	0x3db31a11	0.08745206
62	0xbb413f14	-0.002948706
63	0xbe04435f	-0.12916325
64	0x3cea8328	0.028626993
65	0xbc23a6e8	-0.009988524
66	0x3cc420fc	0.02394151
67	0x3d40d68b	0.047079604
68	0x3e25e9ed	0.16202517
69	0x3d4a5e34	0.049406245
70	0x3e7b987e	0.2456989
71	0xbccaff3c	-0.024779908
72	0x3bade7b8	0.005307164
73	0x3d7384bf	0.05945277
74	0xbcdcc40f	-0.026948957
75	0x3d3ee888	0.046608478
76	0x3e10b70f	0.14132331
77	0xbdc4e43b	-0.09613844
78	0xbd03f59b	-0.03221665
79	0x3d268c41	0.0406611
80	0xbe7121b9	-0.2354802
81	0x3dbd1202	0.0923195
82	0xbc42a795	-0.011880775
83	0x3b92460d	0.004463917
84	0x3d325b99	0.043544386
85	0xbd54c689	-0.05194715
86	0xbd015150	-0.031571686
87	0x3dab462d	0.08362994
88	0x3def9e6c	0.117001384
89	0xbd4a8645	-0.049444456
90	0xbbc23283	-0.0059264316
91	0xbdef5d15	-0.11687676
92	0x3c29dbdb	0.010367359
93	0xbd089bc3	-0.03335167
94	0x3d1e5b5f	0.038661357
95	0x3d6db738	0.05803606
96	0x3d5f1629	0.054464493
97	0xb702a167	-7.786183e-06
98	0x3dad2f2f	0.08456265
99	0x3bd66270	0.0065424964
100	0x3dc13f17	0.094358616
101	0x3d87953b	0.0662026
102	0xbd5513c6	-0.05202081
103	0xbd48faae	-0.04906719
104	0xbc28d9e0	-0.010305852
105	0xbd43c9e4	-0.04779996
106	0x3dc7aa62	0.09749295
107	0x3d86b6fb	0.065778695
108	0x3c52b6b8	0.012860946
109	0x3db5265c	0.08845207
110	0x3d657636	0.056020938
111	0x3d18e34c	0.037326142
112	0x3d720148	0.059083253
113	0x3de43628	0.11143142
114	0x3d247f95	0.040160734
115	0xbdf983d3	-0.121833466
116	0xbd66d2ae	-0.056353264
117	0xbd63def4	-0.055632547
118	0x3c7d92ce	0.0154768955
119	0x3b14d0a0	0.0022707358
120	0x3d361e35	0.0444624
121	0x3d5b2b66	0.053508185
122	0xbdbdcb67	-0.092673115
123	0x3d748f25	0.059706826
124	0xbde4ae95	-0.111661114
125	0xbd7670ed	-0.06016629
126	0xbdc5a302	-0.09650232
127	0xbc8f7feb	-0.01751705
128	0x3d7c9d0e	0.061673217
129	0xbdb6e7b6	-0.08930914
130	0xba9bae05	-0.0011877423
131	0xbd27ad9d	-0.040937055
132	0xbd756132	-0.059907146
133	0xbc4f93a8	-0.012669481
134	0x3de9ace5	0.1140993
135	0x3d887141	0.066622265
136	0x3dcb4262	0.09924771
137	0x3d574f68	0.052565962
138	0xbdce3b90	-0.100699544
139	0x3e7caece	0.24676058
140	0xbd8d9518	-0.06913203
141	0x3c7d2cf7	0.015452615
142	0x3e273b38	0.16331184
143	0xbd2967e6	-0.04135885
144	0x3e3576ff	0.17721175
145	0x3d6abc02	0.057308204
146	0x3d9d41c3	0.07678559
147	0xbde2ee57	-0.11080616
148	0xbdb997e4	-0.09062174
149	0x3d96a9dc	0.07356617
150	0xbddfafca	-0.10922201
151	0xbd1641d2	-0.036683865
152	0x3da88aa8	0.082295716
153	0x3cbbc559	0.022921251
154	0xbd014d33	-0.031567764
155	0x3d9f7267	0.077854924
156	0xbdcc1016	-0.09964006
157	0x3e244f84	0.16045958
158	0x3d3ef224	0.046617642
159	0x3da68257	0.08130329
160	0x3d4ddc9f	0.05025923
161	0x3d44237c	0.047885403
162	0x3dd8eb76	0.105917856
163	0x3e4b732b	0.19868152
164	0xbd1479e6	-0.036249064
165	0x3d8b6492	0.06806292
166	0xbdb2eb20	-0.08736253
167	0x3d76681f	0.06015789
168	0x3d5926be	0.053015463
169	0xbc75fa03	-0.015013221
170	0xbc1794c5	-0.009251778
171	0xbd857266	-0.065159604
172	0xbd346f70	-0.044051588
173	0xbd83162c	-0.06400713
174	0x3cbf63eb	0.023363074
175	0x3d4ed346	0.050494455
176	0x3dabc227	0.08386641
177	0xbc73947a	-0.014866943
178	0xbd1ce19b	-0.03830109
179	0x3cf9181e	0.030407008
180	0xbd911fd8	-0.07086152
181	0x3d49a4ef	0.04922956
182	0x3dc722d6	0.09723441
183	0x3e7fb20f	0.24970268
184	0x3d412026	0.0471498
185	0x3e64d966	0.22348556
186	0xbd6ed456	-0.058307968
187	0x3cd2a655	0.025714079
188	0x3e1e11ec	0.15436524
189	0xba962a80	-0.0011456758
190	0xba36c6ee	-0.0006972392
191	0xbc1e4f90	-0.009662524
192	0x3d4c32e2	0.049853213
193	0xbccf7a87	-0.02532698
194	0xbbfc239e	-0.0076946756
195	0xbd44b39b	-0.048022848
196	0x3ccb30e7	0.024803592
197	0xbdbb5504	-0.09147075
198	0xbc788044	-0.0151673
199	0xbda7d104	-0.081941634
200	0xbd1faa42	-0.03898073
201	0x3b799df9	0.0038088544
202	0x3d722e30	0.05912608
203	0x3da7056f	0.08155333
204	0xbd9ed9a3	-0.07756355
205	0x3d0048e3	0.03131951
206	0x3c8c1ffa	0.017105091
207	0x3d610b16	0.054942213
208	0x3df219fd	0.11821363
209	0xbda7efd2	-0.08200039
210	0xbd6481a8	-0.055787712
211	0xbe00840f	-0.12550376
212	0xbd070e74	-0.032972768
213	0x3d888110	0.06665242
214	0x3e87720c	0.26454198
215	0xbd885c53	-0.066582344
216	0xbc0293f2	-0.007969843
217	0xbd40391b	-0.04692946
218	0x3d8c636d	0.068549015
219	0xbd6c9d0a	-0.05776695
220	0x3d4e123b	0.050310355
221	0xbc175b28	-0.009238042
222	0xbb3c4c6b	-0.0028732072
223	0xbdea1a82	-0.11430837
224	0xbd599f59	-0.05313048
225	0x3e0e3a99	0.1388954
226	0x3da51206	0.08060078
227	0xbda32d32	-0.07967605
228	0xbdcd3a49	-0.10020883
229	0xbdc348cc	-0.09535369
230	0x3e07a1a1	0.1324525
231	0x3b4b23cf	0.0030996685
232	0x3d1ff308	0.039050132
233	0x3d384e42	0.044996507
234	0x3e96c685	0.29448333
235	0xbdf4ca1b	-0.11952611
236	0x3cbdce4d	0.023169661
237	0xbdbeff88	-0.093260825
238	0x3ec64174	0.38721812
239	0x3c5210da	0.012821401
240	0x3dc0b9d7	0.09410446
241	0xbd51896b	-0.051156443
242	0xbe3b8aef	-0.18314718
243	0x3e1c72ec	0.15278214
244	0x3dc47ca4	0.09594086
245	0x3d285364	0.041095152
246	0x3d0ffab0	0.035151184
247	0xbc92fffa	-0.017944325
248	0x3dc72d7a	0.09725471
249	0xbdd567e3	-0.104202054
250	0xbd434850	-0.047676384
251	0x3da637a4	0.08116081
252	0xbd7c431c	-0.061587438
253	0x3e20bbf5	0.156967
254	0xbd9bc542	-0.07605983
255	0xbd891f1c	-0.06695387

linearmid2.bias f4 [256]
0	0x3f08c275	0.5342172
1	0xbc7a64ec	-0.015282851
2	0xbe583a3c	-0.21115965
3	0x3e91272e	0.28350204
4	0xbd94717d	-0.07248209
5	0x3f71a713	0.9439556
6	0xbe0a4263	-0.13501887
7	0x3ed2ab4f	0.41146323
8	0x3e957a30	0.29194784
9	0x3effee39	0.49986437
10	0xbba14a10	-0.004922159
11	0x3f21fc34	0.63275456
12	0x3e62146a	0.220781
13	0xbe8edbff	-0.2790222
14	0x3e6741d6	0.22583708
15	0x3e296902	0.16543964
16	0xbe580e53	-0.21099214
17	0x3cd8b234	0.026452161
18	0xbe084cc4	-0.13310534
19	0xbc747731	-0.014920996
20	0x3e824875	0.25445905
21	0xbe027205	-0.12738807
22	0xbd1005a4	-0.03516163
23	0x3f467ee1	0.7753735
24	0x3eac197e	0.336132
25	0x3eeacd3d	0.4585971
26	0x3f0b2adc	0.54362273
27	0xbe3ec768	-0.18630755
28	0xbda3e03a	-0.08001752
29	0xbdfff4b0	-0.12497842
30	0x3dc156bd	0.09440372
31	0xbe19ed50	-0.15031934
32	0x3d43afb2	0.047774978
33	0xbdaa64f2	-0.08320035
34	0xbd43c755	-0.04779752
35	0xbcde793d	-0.02715742
36	0xbe47340a	-0.19453445
37	0x3e8fdd49	0.28098515
38	0xbe24cc53	-0.16093569
39	0x3e52912f	0.20563196
40	0xbe8840c3	-0.2661191
41	0x3cb35c1c	0.021894507
42	0xbd753774	-0.059867337
43	0xbcba13a4	-0.022714444
44	0xbda20299	-0.07910652
45	0x3f405907	0.75135845
46	0xbe118b03	-0.14213185
47	0x3f1e4fda	0.61840594
48	0x3ddc53df	0.10758185
49	0x3d88684f	0.0666052
50	0xbd97c750	-0.07411063
51	0xbe8a1c80	-0.2697487
52	0x3d898392	0.06714548
53	0xbd469d36	-0.04848977
54	0xbe012161	-0.1261039
55	0x3de1da3e	0.110279545
56	0xbe537a86	-0.20652208
57	0x3d4e1dc1	0.050321344
58	0x3eecdda9	0.46262863
59	0x3d09542b	0.033527534
60	0xbe0b3769	-0.13595356
61	0x3f02925f	0.51004595
62	0xbe5c3720	-0.21505404
63	0x3f062a02	0.5240785
64	0xbe00cb60	-0.12577581
65	0x3ee33875	0.4437901
66	0xbeaae8b7	-0.33380672
67	0x3d9824b3	0.07428875
68	0x3f0edbda	0.55804217
69	0x3e40d3fb	0.18830864
70	0xbe9de5b1	-0.30839303
71	0xbddd283e	-0.10798691
72	0xbda3e148	-0.08001953
73	0x3f3c6fa8	0.73607874
74	0x3dcb5b76	0.09929554
75	0xbe8b7cfc	-0.27243793
76	0xbe098b4a	-0.13432041
77	0xbe006982	-0.12540248
78	0xbc4da90c	-0.012552511
79	0xbe29c6f7	-0.16579805
80	0x3e2e7f1e	0.17040679
81	0x3ca98a9d	0.020695979
82	0x3f5cbd1d	0.86226064
83	0xbcf02d41	-0.029318454
84	0x3ec21539	0.37906817
85	0x3e61c6ac	0.22048444
86	0x3ea0b76b	0.31389937
87	0x3ee60e23	0.4493266
88	0xbe3b6cb5	-0.18303187
89	0xbdddbb5c	-0.108267516
90	0x3f54cf36	0.8312868
91	0x3d5e7c91	0.054318015
92	0x3f20302b	0.625735
93	0xbe82a7bf	-0.25518605
94	0xbec8de5b	-0.39232144
95	0xbc1f7de9	-0.009734609
96	0xbd886ff0	-0.066619754
97	0x3c778dea	0.015109519
98	0xbe8ad9fe	-0.2711944
99	0xbe23f4c4	-0.1601134
100	0xbdd949c0	-0.1060977
101	0x3df3141d	0.11869071
102	0xbe06c6df	-0.13161801
103	0x3f22bff7	0.63574165
104	0xbdab9de2	-0.08379723
105	0x3e289055	0.16461308
106	0xbe6f5642	-0.23372748
107	0xbe040e97	-0.1289619
108	0xbe852bc2	-0.26009947
109	0x3eaa5d19	0.33274153
110	0x3ceb988d	0.028759265
111	0xbde6181f	-0.112350695
112	0x3f2fad73	0.6862404
113	0x3edb54ff	0.42838284
114	0xbe08e85b	-0.13369887
115	0x3ee1bb6f	0.44088313
116	0x3ebf7e20	0.37400913
117	0x3d442e78	0.04789588
118	0x3d9b4c96	0.07582967
119	0xbbd148cb	-0.0063868514
120	0xbe1e77cb	-0.15475385
121	0x3e0eaa8c	0.13932246
122	0xbcb98eb0	-0.022651047
123	0xbe983565	-0.29728237
124	0x3e9a3c02	0.30123907
125	0x3d6d4ded	0.057935644
126	0x3e556474	0.20839101
127	0xbdb97e93	-0.09057345
128	0x3f1b0d94	0.60567594
129	0xbdd5fc6b	-0.104485355
130	0x3e97c921	0.29645637
131	0xbde8bb03	-0.11363795
132	0x3d09de59	0.033659313
133	0xbe34915f	-0.1763358
134	0xbbdd2a79	-0.006749448
135	0xbe06785f	-0.13131855
136	0xbea2a1be	-0.31764024
137	0x3e34bcca	0.17650142
138	0x3f2c1e5a	0.6723381
139	0xbdf53169	-0.11972315
140	0xbdf778a5	-0.12083558
141	0xbdd6362e	-0.10459553
142	0xbd1ebf91	-0.03875691
143	0x3c9c978c	0.019115232
144	0x3e9869f8	0.29768348
145	0xbe4ca278	-0.19983852
146	0x3f553a50	0.832921
147	0x3c264fb6	0.0101508405
148	0xbeb2873b	-0.34868798
149	0xbde7110b	-0.112825476
150	0xbe639aec	-0.22227067
151	0x3e90da23	0.28291425
152	0x3d8dd47b	0.06925293
153	0xbe37fd51	-0.17967726
154	0xbe80b50e	-0.25138134
155	0x3f1431e7	0.57888645
156	0xbd591d22	-0.0530063
157	0x3dec7045	0.11544851
158	0x3e260450	0.16212583
159	0x3d56b1c1	0.052415613
160	0xbd8e1a97	-0.06938665
161	0x3e45d1fe	0.19318387
162	0xbe46528d	-0.19367428
163	0xbd79acb3	-0.060955714
164	0x3cd71973	0.026257252
165	0x3f14b757	0.58092254
166	0x3d139b10	0.03603655
167	0x3f3f2457	0.74664825
168	0xbeae3623	-0.34025678
169	0x3f1f7b6a	0.6229769
170	0xbe0495dd	-0.12947793
171	0xbdf8b895	-0.12144581
172	0x3e1e8a53	0.15482454
173	0xbbd21c11	-0.006412037
174	0xbc5cf710	-0.013486639
175	0x3ef28d3f	0.47373387
176	0xbd9857f2	-0.07438649
177	0xbe2db78b	-0.16964547
178	0xbe24c6b7	-0.16091429
179	0xbea56531	-0.32303765
180	0x3f3362af	0.70072454
181	0x3cea87a8	0.028629139
182	0x3dbfda02	0.093677536
183	0x3eba1b85	0.3634912
184	0x3caeca4b	0.021336695
185	0x3ced4eb0	0.028968185
186	0xbe104cf1	-0.14091851
187	0xbdb45cd4	-0.08806768
188	0x3e8a130c	0.26967657
189	0xbe1408a5	-0.14456423
190	0x3e41f880	0.18942451
191	0x3f299c6c	0.66254306
192	0x3f02ead5	0.51139575
193	0x3eda60a2	0.4265185
194	0xbdc43143	-0.095797084
195	0xbe64bda3	-0.22337966
196	0xbde31569	-0.11088068
197	0x3e8f0a2b	0.27937445
198	0xbe816a4e	-0.25276417
199	0xbd732f42	-0.05937124
200	0x3e87991e	0.26484007
201	0xbe816934	-0.25275576
202	0xbc95e8cc	-0.018299483
203	0xbeaaa8d5	-0.33331934
204	0x3c9aca71	0.01889536
205	0x3ee40f43	0.44542894
206	0xbd7f5f67	-0.062346842
207	0xbe0239de	-0.12717387
208	0x3e56effe	0.20989987
209	0xbe634739	-0.22195138
210	0xbc9db9d4	-0.019253649
211	0xbd93b877	-0.07212918
212	0xbec7d495	-0.39029375
213	0x3eae239d	0.34011546
214	0x3e173fd7	0.14770447
215	0x3eb6e058	0.35718036
216	0xbdb06d27	-0.08614569
217	0xbde717e4	-0.11283854
218	0xbdf53d2d	-0.11974559
219	0x3e8c11e0	0.27357388
220	0x3ec228b8	0.3792169
221	0xbe0c1a2b	-0.13681857
222	0x3c993b92	0.018705163
223	0x3e0d7e02	0.138176
224	0xbdd02edf	-0.1016519
225	0xbd908b0c	-0.07057771
226	0xbd3876b6	-0.045035087
227	0x3f0191c6	0.5061306
228	0xbe81d870	-0.2536044
229	0x3ee344c0	0.4438839
230	0xbd22da35	-0.03975888
231	0xbe2e43a1	-0.17017986
232	0x3e893533	0.267984
233	0xbd84835e	-0.06470369
234	0x3eede601	0.46464542
235	0x3f53104e	0.82446754
236	0xbea1f609	-0.31633022
237	0x3ecf7f95	0.40527025
238	0xbcd27afc	-0.02569341
239	0xbdfc1e4a	-0.12310465
240	0x3dddb498	0.10825461
241	0x3edda32e	0.4328856
242	0x3f4fd659	0.81186444
243	0x3d84dc1b	0.06487294
244	0x3eb20d93	0.3477598
245	0x3f330f88	0.69945574
246	0xbd6ce4b6	-0.057835303
247	0x3cea9bc2	0.028638724
248	0x3c990e3f	0.01868355
249	0xbcd668cb	-0.026173016
250	0x3e531c8d	0.2061636
251	0x3f617a66	0.8807739
252	0x3ef7ca05	0.48396316
253	0x3ccc8de0	0.024969995
254	0xbd595f07	-0.05306914
255	0xbd866427	-0.06562071

linear2.weight f4 [4, 256]
0	0x3e12c21a	0.14331856
1	0xbd92bf4d	-0.07165394
2	0xbe0792cc	-0.13239592
3	0x3e395607	0.18099223
4	0xbd98e892	-0.07466234
5	0x3e296164	0.16541058
6	0x3e19ded0	0.15026402
7	0x3d4821e4	0.048860446
8	0x3d0224e9	0.03177348
9	0x3da11586	0.078654334
10	0xbc93269c	-0.017962746
11	0x3d67c982	0.056588657
12	0x3daefc9b	0.085442744
13	0xbd47d878	-0.048790425
14	0xbd1d913a	-0.038468577
15	0xbd77be8b	-0.06048445
16	0xbda6d18b	-0.08145436
17	0xbd787eb4	-0.06066771
18	0x3e16c658	0.147241
19	0xbc559c1a	-0.013037706
20	0x3de7101b	0.11282369
21	0x3e280ded	0.16411562
22	0x3d5089ce	0.05091267
23	0x3db2400c	0.08703622
24	0x3d855448	0.06510216
25	0x3e27b553	0.16377763
26	0x3dc0397d	0.09385965
27	0xbdbfe856	-0.093704864
28	0x3cc3eef6	0.023917656
29	0x3d8db5ce	0.06919442
30	0x3a0c9a83	0.00053636
31	0x3c7e6dcb	0.015529106
32	0xbc35b733	-0.011091041
33	0xbcba92bf	-0.022775052
34	0xbb9492ce	-0.004534102
35	0xbcbfd0ab	-0.02341493
36	0xbc0c6628	-0.008569278
37	0xbc9c0d7f	-0.019049404
38	0x3d334039	0.04376242
39	0xbd24db9a	-0.04024849
40	0xbd5f701a	-0.054550268
41	0xbe03a42d	-0.12855597
42	0x3e7788d3	0.24173288
43	0xbe134189	-0.14380468
44	0x3d92ab3d	0.07161567
45	0x3e86718d	0.26258507
46	0xbda8cfcf	-0.08242761
47	0x3e26a0be	0.16272256
48	0xbddd08ea	-0.10792716
49	0xbddbc937	-0.10731738
50	0xbdc1aa9d	-0.0945637
51	0xbe2c7a49	-0.16843523
52	0xbe0da2d0	-0.1383164
53	0xbdee7615	-0.11643616
54	0x3b0ef66c	0.002181436
55	0xbe3ac340	-0.18238544
56	0xbda94ffc	-0.08267209
57	0xbd8c08e6	-0.06837635
58	0x3d5664ec	0.05234234
59	0xbc263502	-0.010144474
60	0xbdd44c03	-0.103660606
61	0xbd4694c4	-0.048481718
62	0xbdf6c5bd	-0.12049434
63	0x3e041f75	0.12902625
64	0x3d8bbc7c	0.0682306
65	0x3e0ff25d	0.14057298
66	0xbd938061	-0.07202221
67	0x3d9d71a9	0.076876946
68	0x3de1ab30	0.110189795
69	0x3bc48a3c	0.005997924
70	0xbd11af03	-0.035567295
71	0xbdc05f58	-0.093931854
72	0xbdabe41c	-0.08393118
73	0x3ea1f97a	0.31635648
74	0x3d3d3aa0	0.046198487
75	0x3e30c3f8	0.17262256
76	0xbc5ca20e	-0.013466371
77	0x3b8d07da	0.0043039145
78	0xbe1b17c7	-0.15145789
79	0x3c139e4c	0.009009909
80	0x3da0c6a1	0.078503855
81	0xbd3ebd26	-0.046567105
82	0x3e08740c	0.13325518
83	0xbd8db90f	-0.06920063
84	0xbce84550	-0.028353363
85	0xbccec156	-0.025238674
86	0x3d2df7d6	0.042472683
87	0x3dd7eb1f	0.10542893
88	0xbcd25012	-0.025672946
89	0x3d2e4d96	0.04255446
90	0x3e43a3a8	0.19105399
91	0xbd969647	-0.07352882
92	0xbca81588	-0.02051808
93	0xbda11a99	-0.07866401
94	0xb7eb3dad	-2.8042903e-05
95	0xbdf4089e	-0.11915706
96	0x3c1ad5a3	0.009450349
97	0x3d92d16b	0.071688496
98	0xbd976e99	-0.07394142
99	0xbdb0ef45	-0.08639387
100	0xbe633d3d	-0.2219133
101	0xbdea1727	-0.11430197
102	0x3dbf5601	0.09342576
103	0x3e86b3e9	0.26309136
104	0xbd40f7a9	-0.047111187
105	0xbd1c0f5d	-0.03810059
106	0x3d0d67d6	0.034522854
107	0xbcd5a10d	-0.026077772
108	0xbda13dd7	-0.07873123
109	0xbd3aa128	-0.045563847
110	0xbdb8784d	-0.090073206
111	0x3dc5a4b4	0.09650555
112	0x3e0e7942	0.13913444
113	0x3d13e6bc	0.036108717
114	0xbdc45181	-0.09585858
115	0xbbe1a316	-0.0068858964
116	0x3c041840	0.008062422
117	0xbca2e6df	-0.019885479
118	0x3ceb0ee1	0.028693618
119	0x3d9fcef0	0.07803142
120	0xbd47c7d7	-0.048774567
121	0x391ab043	0.00014752247
122	0xbe4452e6	-0.19172248
123	0xbdda7b7b	-0.10668083
124	0xbcbbc3a4	-0.022920437
125	0xbe014885	-0.1262532
126	0xbc086d48	-0.008326836
127	0x3c8a1573	0.01685593
128	0x3dc6faee	0.0971583
129	0x3e072a93	0.13199835
130	0xbd3a0729	-0.045416985
131	0xbe265c8f	-0.16246246
132	0x3ab16add	0.0013535876
133	0xbe007135	-0.12543185
134	0x3a389ba9	0.0007042238
135	0xbd460506	-0.048344634
136	0xbdac6b79	-0.08418936
137	0x3e3497f8	0.17636096
138	0x3db88afa	0.09010883
139	0xbdd44cd0	-0.10366213
140	0x3dc13d57	0.09435528
141	0x3d00dbf0	0.03145975
142	0xbe1bff33	-0.1523407
143	0xbd951d3f	-0.07280969
144	0xbc3f0760	-0.011659473
145	0x3d467a95	0.048456747
146	0x3e807c56	0.2509486
147	0x3e195d07	0.14976893
148	0xbc48e3fc	-0.012261387
149	0xbd7964da	-0.060887195
150	0xbd8daea3	-0.06918075
151	0x3dd28fa2	0.10281302
152	0xbe066c82	-0.1312733
153	0xbc7674b2	-0.015042471
154	0x3d5168cb	0.05112533
155	0x3df178dc	0.1179063
156	0xbe18f46a	-0.14936987
157	0xbd9fc180	-0.07800579
158	0xbd3d3e8e	-0.046202235
159	0xbdda201c	-0.106506556
160	0xbc8e7386	-0.01738907
161	0x3d41a133	0.047272872
162	0xbda140ae	-0.07873665
163	0xbe392a29	-0.18082489
164	0xbc1ddc4a	-0.009635041
165	0x3dd8cf18	0.10586375
166	0x3d9d9611	0.076946385
167	0x3d8b9398	0.06815261
168	0x3db0ad5d	0.086268164
169	0x3df3770c	0.11887941
170	0x3c56d3da	0.013112033
171	0xbe2476d1	-0.1606095
172	0xbda90754	-0.08253351
173	0xbc67ebf7	-0.0141553795
174	0xbda22a49	-0.079182215
175	0x3d1da5e1	0.038488273
176	0xbd5ee596	-0.05441817
177	0x3c40f00d	0.011775983
178	0xbd96e5d6	-0.073680565
179	0xbdabee90	-0.083951116
180	0x3ef00a30	0.46882772
181	0xbdf05a0d	-0.11735926
182	0xbdc03560	-0.093851805
183	0x3ca2fca0	0.019895852
184	0xbbc94716	-0.0061425073
185	0xbd5d3e5d	-0.054014552
186	0x3d1217af	0.035667118
187	0xbd0e21ac	-0.03470008
188	0xbd134e9c	-0.03596364
189	0x3ce860d3	0.028366482
190	0x3dc4ddc8	0.09612614
191	0x3b2a0739	0.0025944246
192	0x3e034985	0.12821014
193	0x3e826677	0.254688
194	0xbe3e1be5	-0.18565328
195	0xbc5da136	-0.013527205
196	0x3cbf5823	0.023357457
197	0xbc5f4415	-0.013627072
198	0x3ca05f21	0.019576611
199	0x3d82b553	0.06382241
200	0x3d0cc8a2	0.034371026
201	0xbd730580	-0.059331417
202	0x3be7dde1	0.0070760106
203	0xbce4cade	-0.027928766
204	0xbdf3d529	-0.119058914
205	0x3d8fb04e	0.07016049
206	0x3db40edf	0.08791899
207	0xbd9bea2f	-0.07613026
208	0xbdcf90ec	-0.101350635
209	0xbd3c7176	-0.046006642
210	0xbdeaf2d4	-0.11472097
211	0xbcaa8e6d	-0.020819867
212	0x3ba003ff	0.004883289
213	0x3c98bd96	0.01864509
214	0x3b62690f	0.0034547483
215	0xbd4aedae	-0.049543075
216	0xbd29b80e	-0.041435294
217	0x3db8bd3f	0.09020471
218	0xbdf82aca	-0.12117536
219	0x3db84463	0.08997419
220	0x3ba78307	0.005112055
221	0xbe04e109	-0.12976469
222	0xbb9c0476	-0.004761274
223	0xbdcac651	-0.09901107
224	0xbb9afa7c	-0.004729567
225	0x3d819b30	0.06328428
226	0xbd6fcfe7	-0.05854788
227	0x3dc48f41	0.09597636
228	0xbcb6e233	-0.022324657
229	0xbcf611e6	-0.030037832
230	0xbd274875	-0.040840585
231	0xbaac8998	-0.0013163565
232	0x3d1eccab	0.038769405
233	0xbe2aea5d	-0.16690965
234	0x3e13c2c2	0.14429763
235	0x3e93167e	0.28728098
236	0xbce1c0b2	-0.027557705
237	0x3d54de83	0.051970016
238	0xbd289db0	-0.041166008
239	0x3e3e1abe	0.18564889
240	0xbcdc7536	-0.02691136
241	0x3bf40280	0.007446587
242	0x3e064276	0.1311129
243	0xbd65da47	-0.05611637
244	0xbcfc82e4	-0.030824132
245	0x3e3a2dca	0.1818153
246	0xbe686d83	-0.22698025
247	0x3d9341d2	0.071902886
248	0x3ccc8246	0.024964463
249	0x3baad402	0.0052132616
250	0xb9f598ff	-0.00046844032
251	0x3e68e3d7	0.22743164
252	0x3d86d3ed	0.065833904
253	0xbcca3555	-0.024683634
254	0xbdaaa273	-0.08331766
255	0xbdf8daf4	-0.12151137

linear2.bias f4 [4]
0	0x3ed03341	0.40664104
1	0x3ec54183	0.38526544
2	0x3d984fe3	0.07437112
3	0xbda522c9	-0.08063275
