models/model_569.pth (torch, 540943 bytes, 8 tensors)

linear1.weight f4 [256, 7]
0.092510745 -0.3591349 0.16315375 -0.0822574 -0.13838795 -0.15072066 -0.1739281 -0.010714866
-0.010040509 0.1358256 -0.08830436 -0.033232335 0.056693055 -0.11899537 -0.15898648 -0.048683308
-0.030619105 0.19578284 -0.026647504 -0.15456124 -0.0110884 0.13307773 -0.0045259353 0.18159083
0.06452176 0.39765525 -0.19596043 -0.48591942 0.19603598 0.040293653 0.08414592 -0.1030927
-0.24269927 0.11996922 0.099344745 -0.027626008 0.039106194 -0.19059014 0.10659253 -0.053376466
-0.088643745 0.03742348 0.07240425 0.015133185 0.3372016 -0.23172468 0.48421443 -0.27096894
-0.21200196 0.10999477 0.22715655 0.03528882 0.20459709 -0.13837242 0.050769635 -0.09477859
0.13121507 -0.07266321 -0.06711696 0.14022577 -0.016535386 -0.13752873 -0.039739966 -0.30908483
0.06788051 -0.27839518 0.16121686 -0.028351765 0.11919437 0.00840196 -0.015895495 -0.428063
0.193833 -0.052638624 -0.21872994 -0.16922726 -0.196727 -0.2571479 0.090908855 -0.14111981
0.048271164 -0.08844813 -0.23609917 0.02315328 -0.38696522 -0.50242555 -0.19339712 -0.10969781
-0.1828985 0.15048572 0.05649625 0.04181888 -0.025825534 0.17225413 0.0006666159 0.17757389
-0.13570763 -0.096904896 -0.108224586 -0.37078923 -0.068975374 -0.13252011 -0.064601526 0.119750135
-0.11549117 0.038547445 0.06304591 0.17583475 0.1386945 -0.17776933 -0.033811934 -0.033349086
0.11450597 -0.0032684905 0.119704016 0.14047115 -0.057039544 0.031592708 -0.037538044 0.0015329538
-0.066077836 -0.058253128 0.28316742 -0.005743372 0.17240268 -0.040084057 -0.033767782 -0.17252477
0.4871611 -0.053879824 0.63910013 -0.3450158 -0.2394854 0.15422693 0.19449766 -1.175004
-0.16813335 0.33799314 -0.14845158 -0.019709472 0.22466083 0.1674879 0.12501962 -0.1813015
0.61130303 -0.16137159 -0.10786167 0.2162794 0.2171401 0.19142601 -0.20634402 0.40970483
-0.16460782 -0.13060433 -0.11739588 -0.029115714 0.24950476 -0.17983882 0.39283177 -0.14754917
-0.33668485 0.18578997 -0.044113535 0.14145993 0.14378622 -0.0779397 0.08131788 0.03780812
-0.057978213 -0.18551154 -0.092408955 0.083870456 0.05517911 -0.0037810095 -0.072822094 -0.18498348
-0.031104982 -0.018445645 -0.04074222 0.36850142 0.12860568 -0.03451579 0.2598664 -0.0016302184
0.21765289 -0.21701889 0.1740825 -0.19838986 -0.20060681 -0.50145024 -0.31816453 -0.007904977
0.5474787 0.3105581 0.33156374 0.26610988 0.26252744 0.011432825 -0.184702 0.042289168
0.29744577 -0.18697305 -0.037942853 -0.011570726 0.14931019 0.062079266 0.085698776 -0.07474201
-0.19194995 -0.2701844 -0.057689022 0.061155807 0.031228155 0.075381316 -0.12749209 -0.24046223
-0.019867921 0.19453761 0.13351119 0.18017258 0.05654792 -0.20497814 -0.012261307 -0.066018365
0.033737347 0.06645867 0.111586735 -0.10840034 0.07761998 -0.05876925 0.0044637606 0.13166146
0.07247138 -0.057983644 -0.15151846 -0.08315963 0.15706056 0.16281249 -0.031212216 0.13301082
0.30223158 0.18660979 -0.24487528 0.087737285 -0.025297381 0.08678466 -0.03835177 0.11775191
0.008818183 -0.15345038 -0.05705144 -0.02289036 0.0010151202 -0.0992115 -0.03639198 0.014321225
00000000: 4676 bd3d 88e0 b7be c711 273e 9176 a8bd
00000010: 92b5 0dbe 8456 1abe 351a 32be 688d 2fbc
00000020: f280 24bc de15 0b3e ebd8 b4bd a11e 08bd
00000030: fa36 683d d8b3 f3bd 5acd 22be 2668 47bd
00000040: ebd4 fabc 4c7b 483e de4b dabc 4d45 1ebe
00000050: 1fac 35bc 8745 083e 4c4e 94bb f2f2 393e
00000060: fc23 843d 7899 cb3e daa9 48be 6eca f8be
00000070: a8bd 483e f50a 253d b254 ac3d 4422 d3bd
00000080: 2886 78be 6cb2 f53d 4275 cb3d f04f e2bc
00000090: d12d 203d 102a 43be 2f4d da3d 48a1 5abd
000000a0: da8a b5bd 5d49 193d ae48 943d 2ef1 773c
000000b0: b0a5 ac3e 3c49 6dbe f4ea f73e 71bc 8abe
000000c0: 0b17 59be f044 e13d ba9b 683e 028b 103d
000000d0: e681 513e 80b1 0dbe d2f3 4f3d 471b c2bd
000000e0: 3e5d 063e 73d0 94bd 9e74 89bd 5897 0f3e
000000f0: 3875 87bc 55d4 0cbe 60c6 22bd 5e40 9ebe
00000100: f004 8b3d d089 8ebe 0816 253e f641 e8bc
00000110: 2e1c f43d 60a8 093c 4537 82bc 132b dbbe
00000120: 287c 463e 999b 57bd befa 5fbe e949 2dbe
00000130: cd72 49be e4a8 83be 6c2e ba3d b681 10be
00000140: fcb7 453d 4b24 b5bd fbc3 71be f3ab bd3c
00000150: 4e20 c6be f69e 00bf e509 46be 3fa9 e0bd
00000160: bf49 3bbe ee18 1a3e 9d68 673d 464a 2b3d
00000170: 1290 d3bc 6363 303e d6bf 2e3a eed5 353e
00000180: f1f6 0abe 1376 c6bd daa4 ddbd 16d8 bdbe
00000190: f642 8dbd 5ab3 07be ce4d 84bd 8f3f f53d
000001a0: a286 ecbd ede3 1d3d 371e 813d 060e 343e
000001b0: ee05 0e3e 2a09 36be 627e 0abd 0d99 08bd
000001c0: 1b82 ea3d 2c34 56bb 6127 f53d abd7 0f3e
000001d0: 4ca2 69bd 5b67 013d 7ec1 19bd 65ed c83a
000001e0: d153 87bd d59a 6ebd 52fb 903e e532 bcbb
000001f0: 548a 303e 2e2f 24bd 1650 0abd 55aa 30be
00000200: 2e6d f93e 17b1 5cbd 119c 233f e9a5 b0be
00000210: a93b 75be aaed 1d3e 652a 473e 8866 96bf
00000220: 262b 2cbe 700d ad3e b103 18be c275 a1bc
00000230: 7d0d 663e f381 2b3e 2505 003e 1aa7 39be
00000240: 5b7e 1c3f 983e 25be 94e6 dcbd 5978 5d3e
00000250: f959 5e3e 2e05 443e d94b 53be d5c4 d13e
00000260: f48e 28be 24bd 05be 406d f0bd 1484 eebc
00000270: 2d7e 7f3e ab27 38be 3f21 c93e 2117 17be
00000280: f561 acbe ba3f 3e3e 65b0 34bd dfda 103e
00000290: b23c 133e d99e 9fbd fd89 a63d b0dc 1a3d
000002a0: 907a 6dbd bdf6 3dbe e840 bdbd 46c4 ab3d
000002b0: 7e03 623d d0ca 77bb c023 95bd 4f6c 3dbe
000002c0: e0cf febc 521b 97bc 50e1 26bd 38ac bc3e
000002d0: 35b1 033e 6e60 0dbd 350d 853e 0dad d5ba
000002e0: 66e0 5e3e 333a 5ebe af42 323e b626 4bbe
000002f0: df6b 4dbe 0b5f 00bf 76e6 a2be e083 01bc
00000300: 9027 0c3f 7901 9f3e b9c2 a93e 8e3f 883e
00000310: ff69 863e be50 3b3c 8522 3dbe 6837 2d3d
00000320: d04a 983e dd75 3fbe f769 1bbd 2493 3dbc
00000330: c5e4 183e d446 7e3d d782 af3d 5712 99bd
00000340: 878e 44be 9c55 8abe 534b 6cbd 837e 7a3d
00000350: 30d2 ff3c 8561 9a3d 498d 02be bb3b 76be
00000360: 0dc2 a2bc de34 473e 28b7 083e 297f 383e
00000370: cb9e 673d cae5 51be a6e3 48bc a334 87bd
00000380: 2c30 0a3d 7c1b 883d 9687 e43d ff00 debd
00000390: 39f7 9e3d 06b8 70bd bd44 923b 43d2 063e
000003a0: e06b 943d 4280 6dbd a827 1bbe 994f aabd
000003b0: 7cd4 203e 51b8 263e c3b0 ffbc fd33 083e
000003c0: 19be 9a3e a316 3f3e 96c0 7abe 9baf b33d
000003d0: 743c cfbc 28bc b13d bf16 1dbd ea27 f13d
000003e0: 247a 103c 1922 1dbe c5ae 69bd 9084 bbbc
000003f0: c80d 853a 662f cbbd c20f 15bd 92a3 6a3c

linear1.bias f4 [256]
0.2841135 -0.39609128 -0.02059744 0.35066035 -0.478549 0.11633985 0.74333984 -0.036996324
-0.3706098 -0.13089809 0.5099517 -0.22440773 -0.5209649 0.47350574 -0.61743945 -0.2303995
-0.019189315 0.30153936 0.48121578 0.104012646 0.8224012 0.72380245 0.0076872767 0.009398329
-0.3374243 -0.30678767 0.24300456 -0.48649442 -0.12927797 0.053461824 -0.2620302 0.20312382
-0.4620052 -0.67872846 0.45267752 -0.21333028 -0.033370502 0.1329819 0.14718558 0.63985354
0.83157325 -0.746117 0.039749514 0.13186991 0.25994265 0.6797713 0.56868523 0.69916975
-0.6996958 0.73595273 0.1470246 0.32455778 -0.29453737 -0.0925695 0.64185387 0.07068056
-0.27769113 0.37333944 0.67931163 -0.6388298 -0.3160275 -0.34087536 0.16988632 0.3274459
-0.30353427 -0.338018 -0.16610798 -0.0076473746 -0.01481704 0.8731453 0.24079654 -0.4760488
-0.14007418 0.49875927 -0.36146477 -0.7622366 0.06924316 -0.34735712 0.67955077 0.23651588
0.18128972 0.07283646 0.6558205 -0.14457034 -0.5679051 0.51562667 -0.10850149 -0.1069267
-0.41356635 0.113729484 0.557304 -0.12091274 -0.0374596 0.544256 0.13687955 0.29738623
0.35832396 -0.34375274 -0.13160428 0.15669334 -0.12800135 -0.22482808 0.16493353 0.48268792
-0.04349387 0.6572744 -0.5594628 0.064638495 0.31894246 0.049159102 -0.49354938 0.015713453
-0.012023162 0.073524304 0.26216355 0.20879264 0.22816604 0.24844219 0.14067538 -0.41776156
-0.4742964 -0.13237391 0.72108364 0.34280553 -0.19956492 0.078532815 0.66470647 0.1023985
0.037632994 -0.18711552 -0.035619676 -0.15381344 0.123648465 0.22578393 -0.038438555 -0.2316227
0.5181298 -0.34725794 0.4424443 0.17812394 0.6811677 0.10721862 0.31739083 -0.2570026
0.15378799 -0.41808715 -0.38872227 -0.2883527 -0.39192128 -0.39792538 0.41363144 -0.11962277
-0.020242078 0.4589903 0.40228608 0.44033438 0.23260847 -0.24771819 0.1452091 -0.46889898
0.042427156 -0.45992023 -0.16150251 0.7287404 -0.14600949 0.64041424 0.097075365 0.021338247
0.1667424 -0.19818647 -0.14541376 -0.038927708 0.15176477 0.59408003 -0.15055734 -0.15957041
-0.30471978 0.3431815 -0.3639565 0.4767284 0.760709 0.56715775 -0.051795926 -0.08338534
-0.1956282 0.025266698 -0.64964044 0.10844718 0.08087871 -0.15924774 0.21438546 -0.07577212
-0.04548701 -0.3090939 0.19409369 -0.22095749 -0.33437297 -0.17038293 0.46889052 0.8932806
0.37514052 -0.022440821 0.0003721036 -0.44231483 0.44051087 0.60964245 -0.11013528 -0.18616198
-0.36708537 -0.25553322 -0.30626783 -0.3536704 -0.36692968 0.3153007 -0.15293844 -0.18705268
-0.27035025 0.287628 0.63110334 -0.2923044 0.4875381 -0.17117488 0.18912023 -0.14447466
0.83486044 0.5014154 -0.5636725 -0.17989303 0.09102222 0.09052588 -0.30556267 -0.26765686
-0.11362984 -0.28948653 -0.53632087 0.93391347 0.038984843 0.17354573 -0.19093098 0.020508213
0.21259278 -0.4335336 0.7719797 -0.32916236 -0.05203558 0.2693608 0.38337448 0.23900405
-0.608328 -0.6407298 0.25389653 -0.5761773 0.12601054 0.00092469295 -0.0492332 0.14295834
00000000: 5377 913e 7acc cabe f6bb a8bc c189 b33e
00000010: 6004 f5be 9643 ee3d 854b 3e3f 7589 17bd
00000020: 91c0 bdbe 260a 06be 328c 023f 24cb 65be
00000030: f55d 05bf 586f f23e 8310 1ebf d9ed 6bbe
00000040: e932 9dbc 5e63 9a3e ea61 f63e 9504 d53d
00000050: e388 523f 1e4b 393f 8de5 fb3b 73fb 193c
00000060: e1c2 acbe 4613 9dbe 30d6 783e cc15 f9be
00000070: 7261 04be c9fa 5a3d d328 86be b1ff 4f3e
00000080: f28b ecbe 26c1 2dbf 59c5 e73e 4173 5abe
00000090: 82af 08bd 682c 083e d1b7 163e 71cd 233f
000000a0: fce1 543f 8601 3fbf 63d0 223d e808 073e
000000b0: 3417 853e 7e05 2e3f 5b95 113f cafc 323f
000000c0: 441f 33bf 6667 3c3f 9e8d 163e 702c a63e
000000d0: 9acd 96be 1495 bdbd 8950 243f f8c0 903d
000000e0: 882d 8ebe 5926 bf3e 5ee7 2d3f 5a8a 23bf
000000f0: 5bce a1be 3787 aebe aef6 2d3e fda6 a73e
00000100: d868 9bbe b210 adbe 3618 2abe d496 fabb
00000110: 2cc3 72bc 7386 5f3f 5e93 763e abbc f3be
00000120: 9b6f 0fbe 605d ff3e e911 b9be f021 43bf
00000130: 5ccf 8d3d cbd8 b1be 0af7 2d3f 3831 723e
00000140: 03a4 393e 482b 953d dae3 273f 3f0a 14be
00000150: 3b62 11bf 1c00 043f 0736 debd 63fc dabd
00000160: f8be d3be 01eb e83d 7aab 0e3f 19a1 f7bd
00000170: 3d6f 19bd 5c54 0b3f 272a 0c3e 0243 983e
00000180: 3d76 b73e 5c00 b0be 46c3 06be 3874 203e
00000190: c912 03be 5539 66be 56e4 283e df22 f73e
000001a0: a126 32bd 2343 283f f438 0fbf 3061 843d
000001b0: 6d4c a33e 0e5b 493d 81b2 fcbe 80b9 803c
000001c0: ccfc 44bc e993 963d 4d3a 863e bdcd 553e
000001d0: 5ca4 693e a167 7e3e 350d 103e d8e4 d5be
000001e0: fad6 f2be 078d 07be f098 383f 3584 af3e
000001f0: bf5a 4cbe d0d5 a03d 342a 2a3f 4eb6 d13d
00000200: 0e25 1a3d 369b 3fbe f0e5 11bd 4581 1dbe
00000210: 683b fd3d e733 673e bf71 1dbd 802e 6dbe
00000220: 28a4 043f cbcb b1be 0f88 e23e 1f66 363e
00000230: 0261 2e3f 7095 db3d 0d81 a23e d895 83be
00000240: 997a 1d3e 850f d6be 9b06 c7be f7a2 93be
00000250: e8a9 c8be e0bc cbbe 80c7 d33e c8fc f4bd
00000260: b7d2 a5bc c700 eb3e 71f8 cd3e 8273 e13e
00000270: ea30 6e3e d6a9 7dbe b2b1 143e 8713 f0be
00000280: 19c8 2d3d aa7a ebbe ea60 25be bb8e 3a3f
00000290: 8383 15be 30f2 233f 73cf c63d 8ccd ae3c
000002a0: 85be 2a3e 65f1 4abe 58e7 14be a972 1fbd
000002b0: 3968 1b3e a115 183f b42b 1abe 6d66 23be
000002c0: 3b04 9cbe 7cb5 af3e 8258 babe bf15 f43e
000002d0: d3bd 423f 4031 113f f727 54bd efc5 aabd
000002e0: c252 48be 1bfc ce3c d64e 26bf 8e19 de3d
000002f0: bda3 a53d d711 23be dd87 5b3e 6a2e 9bbd
00000300: 9650 3abd 8e41 9ebe 7fc0 463e ae42 62be
00000310: ef32 abbe dd78 2ebe 6b12 f03e 0aae 643f
00000320: 6b12 c03e d0d5 b7bc e616 c339 1777 e2be
00000330: a48a e13e 8711 1c3f 9b8e e1bd 3fa1 3ebe
00000340: 9df2 bbbe 40d5 82be 23cf 9cbe 4914 b5be
00000350: 35de bbbe 186f a13e e59b 1cbe bd8a 3fbe
00000360: 596b 8abe fa43 933e fd8f 213f eca8 95be
00000370: 989e f93e 7848 2fbe bca8 413e 2af1 13be
00000380: 6ab9 553f c25c 003f d74c 10bf e135 38be
00000390: dc69 ba3d a265 b93d b672 9cbe 520a 89be
000003a0: c3b6 e8bd 9437 94be 534c 09bf f414 6f3f
000003b0: 92ae 1f3d f9b5 313e 6983 43be d700 a83c
000003c0: ecb1 593e 1ef8 ddbe 76a0 453f f887 a8be
000003d0: 4323 55bd a9e9 893e a949 c43e 7abd 743e
000003e0: 62bb 1bbf de06 24bf bafe 813e 5b80 13bf
000003f0: e808 013e 1867 723a c0a8 49bd ac63 123e

linearmid.weight f4 [256, 256]
0.1486603 0.3180289 0.048882544 -0.12083643 -0.14580905 -0.030349575 0.15992329 0.19851062
0.0049462765 -0.04577723 0.0047541377 0.07469233 -0.30586627 0.06906953 -0.11583481 0.11387684
-0.00038140424 0.15446714 0.095928 -0.6842676 0.16941668 0.11116001 0.057622783 -0.01586562
0.035908196 -0.23063157 0.043301787 -0.21102425 -0.47432247 0.17369072 0.07673024 0.22662328
0.019795481 -0.1226794 0.04909417 -0.0795804 -0.18615362 0.18001898 0.045796473 -0.14249639
0.3169241 -0.58284533 0.37126505 -0.5535614 0.038528312 0.20987867 0.11846648 0.118533805
0.03187944 -0.1836863 0.118802495 0.050217137 0.16855761 -0.005140893 -0.008179126 -0.035302997
-0.012267545 0.13193882 0.27299717 -0.1915343 -0.038405247 -0.074267894 0.0055582225 0.07288967
-0.15154134 -0.7833045 0.034081586 -0.01638145 0.05556029 0.05447217 0.21141526 -0.1409933
-0.8878885 0.17470379 -0.19290105 -0.1516448 -0.08617551 -0.6651158 0.05376248 -0.085602954
0.087037474 0.30064157 0.24339451 -0.047540482 -0.41789427 0.23713648 0.13075972 -0.20300052
-0.16540796 0.016943865 -0.0069602095 -0.03965706 -0.07800537 0.14728794 -0.04221435 0.11658473
0.23074953 -0.109133504 0.072855346 0.26086986 0.28058815 -0.102880076 -0.042336605 0.049638323
-0.029097965 -0.050507344 -0.21531478 -0.024294235 0.082648344 -0.17307886 -0.024861725 -0.093585044
-0.0110145705 0.060022663 0.19391406 0.18638487 0.098142885 0.2508958 -0.118075326 -0.15966895
-0.26799595 0.11504088 0.077800736 -0.17068961 0.13538045 -0.010524023 -0.00778677 0.0069230422
0.30667573 -0.09801112 -0.024584606 0.07065309 -0.04136489 -0.028856589 0.19135746 -0.12430077
0.07733454 0.04829923 0.07490502 -0.053143714 0.094557256 0.17257653 0.15090291 -0.76894563
0.086176716 0.043061085 0.009994024 -0.096971795 -0.14632417 0.08905803 0.108157896 -0.14992265
-0.893543 -0.096505255 0.08601673 0.05744027 0.008977426 -0.058782794 -0.50422466 -0.04256615
-1.0776151 0.14474674 -0.16405277 -0.10347738 -0.16463414 0.11678695 0.114831336 0.2081547
0.33202666 -0.13985512 0.05113717 0.12239513 0.21316342 0.26071745 -0.064257324 0.118284784
-0.033899337 0.02068113 -0.094606206 -0.14321962 0.0033563434 0.16809401 -1.0304513 -0.024039315
0.035035957 0.049384125 -0.26515317 0.26025397 0.037387732 -0.123273075 -0.0050586653 -0.2985466
-0.036290657 -0.27266935 0.052817803 -0.028427443 0.04941515 -0.1660577 0.1051748 0.12579344
0.10533062 0.23326206 0.08918828 -0.035109833 0.0836437 -0.0051507764 -0.19113758 -0.02338516
-0.12270219 0.062305026 0.07225616 -0.16585845 -0.11990058 -0.078591205 -0.05418107 -0.060970467
-0.06679063 -0.9190463 0.02962515 0.047986925 -0.17778383 -1.0324043 0.18020447 -0.12537894
0.12711848 0.11162475 -0.12863779 0.023219483 0.25899664 -0.16410431 0.03194206 -0.025822274
-0.7111442 -0.2736402 0.1824455 0.16611315 0.0036588386 -0.23175101 0.22482964 -0.19691847
-0.019994546 -0.06361166 0.20848271 0.0370516 -0.19259208 0.14772236 -0.43281433 -0.18733758
-0.08140026 -0.39373463 -0.1494118 -0.051082015 0.081031546 -0.12170343 0.07397664 0.04454453
00000000: 683a 183e afd4 a23e 1039 483d 1779 f7bd
00000010: f84e 15be ac9f f8bc eec2 233e 5e46 4b3e
00000020: 6014 a23b e880 3bbd 99c8 9b3b 4bf8 983d
00000030: 819a 9cbe 5374 8d3d cd3a edbd 4338 e93d
00000040: 36f7 c7b9 a22c 1e3e e675 c43d 292c 2fbf
00000050: 917b 2d3e dca7 e33d de05 6c3d 9ef8 81bc
00000060: 7914 133d af2a 6cbe 375d 313d be16 58be
00000070: 65da f2be fbdb 313e be24 9d3d ef0f 683e
00000080: 222a a23c 563f fbbd f816 493d 0cfb a2bd
00000090: 0e9f 3ebe e556 383e 1595 3b3d 93ea 11be
000000a0: e043 a23e 5a35 15bf 7416 be3e 33b6 0dbf
000000b0: ddcf 1d3d 6fea 563e 8e9e f23d dac1 f23d
000000c0: 0494 023d 4318 3cbe b94e f33d 7cb0 4d3d
000000d0: 5e9a 2c3e f074 a8bb be01 06bc e099 10bd
000000e0: d0fd 48bc f81a 073e 49c6 8b3e 9121 44be
000000f0: d24e 1dbd c419 98bd c021 b63b 2e47 953d
00000100: a72d 1bbe a586 48bf 2299 0b3d 6432 86bc
00000110: 3093 633d 361e 5f3d 3e7d 583e 8c60 10be
00000120: a94c 63bf 8de5 323e da87 45be c648 1bbe
00000130: c97c b0bd 0745 2abf 0c36 5c3d 9a50 afbd
00000140: b440 b23d b1ed 993e 693c 793e cfb9 42bd
00000150: 3df6 d5be e8d3 723e e0e5 053e 5edf 4fbe
00000160: b460 29be dccd 8a3c 7812 e4bb 716f 22bd
00000170: 48c1 9fbd a6d2 163e f4e8 2cbd fac3 ee3d
00000180: 9b49 6c3e 6381 dfbd 2f35 953d bc90 853e
00000190: 40a9 8f3e cab2 d2bd 2669 2dbd 8e51 4b3d
000001a0: db5e eebc cae0 4ebd 7a7b 5cbe b404 c7bc
000001b0: 8943 a93d 963b 31be d1aa cbbc 84a9 bfbd
000001c0: 7576 34bc 53da 753d 6891 463e addb 3e3e
000001d0: 23ff c83d 6a75 803e 7ad1 f1bd 4280 23be
000001e0: c436 89be 8e9a eb3d fe55 9f3d 42c9 2ebe
000001f0: 2ca1 0a3e f46c 2cbc 2928 ffbb b0da e23b
00000200: 9a04 9d3e 0eba c8bd a865 c9bc 91b2 903d
00000210: 3b6e 29bd a764 ecbc 36f3 433e 6791 febd
00000220: 9261 9e3d 6ad5 453d ce67 993d 39ad 59bd
00000230: 3ca7 c13d e7b7 303e 4b86 1a3e 9fd9 44bf
00000240: 6b7d b03d d260 303d fabd 233c 2699 c6bd
00000250: 01d6 15be 0e64 b63d e381 dd3d 5385 19be
00000260: 3cbf 64bf 8ca4 c5bd 8a29 b03d 7d46 6b3d
00000270: 0e16 133c 3ac6 70bd de14 01bf d859 2ebd
00000280: 4bef 89bf 7d38 143e 73fd 27be f3eb d3bd
00000290: da95 28be ff2d ef3d b12c eb3d 8126 553e
000002a0: 66ff a93e 2e36 0fbe 3675 513d 4caa fa3d
000002b0: 8347 5a3e c27c 853e 5899 83bd 4b3f f23d
000002c0: 08da 0abd 796b a93c e6c0 c1bd 2aa8 12be
000002d0: 19f6 5b3b d620 2c3e d4e5 83bf 19ee c4bc
000002e0: dd81 0f3d 0247 4a3d 28c2 87be 0240 853e
000002f0: e123 193d 9876 fcbd 29c3 a5bb 1adb 98be
00000300: 83a5 14bd 519b 8bbe 7b57 583d abe0 e8bc
00000310: 8a67 4a3d 080b 2abe e365 d73d ffcf 003e
00000320: 95b7 d73d 40dc 6e3e 58a8 b63d 54cf 0fbd
00000330: 634d ab3d d8c7 a8bb 92b9 43be 3c92 bfbc
00000340: 494b fbbd 8e33 7f3d 0afb 933d ccd6 29be
00000350: 6f8e f5bd 6df4 a0bd f8ec 5dbd 2bbc 79bd
00000360: 87c9 88bd 9e46 6bbf 71b0 f23c f08d 443d
00000370: f70c 36be d325 84bf 8587 383e 5663 00be
00000380: 592b 023e 849b e43d a0b9 03be c936 be3c
00000390: 359b 843e f60a 28be add5 023d 3c89 d3bc
000003a0: 8c0d 36bf 911a 8cbe fed2 3a3e 9119 2a3e
000003b0: 20c9 6f3b 2350 6dbe be39 663e ffa4 49be
000003c0: 9acb a3bc d446 82bd 7e7c 553e 6bc3 173d
000003d0: dc36 45be 8844 173e d799 ddbe 6cd5 3fbe
000003e0: 2eb5 a6bd 9697 c9be 68ff 18be 603b 51bd
000003f0: def3 a53d a63f f9bd 1181 973d 5374 363d

linearmid.bias f4 [256]
0.30820146 -0.027784739 -0.22487812 0.041802887 -0.24154833 -0.028475178 -0.054192707 -0.11384723
0.049012676 -0.062138762 0.014964972 0.01708516 -0.06955119 0.04769077 -0.025253735 0.44919983
-0.2543005 0.0018176117 -0.03620833 -0.16835108 0.35096285 0.117119744 0.33013567 0.03953716
0.026795605 -0.003955435 -0.06330734 -0.028193863 -0.08374515 -0.21537839 -0.01728011 0.009730677
-0.002768694 0.0025919941 -0.091324925 0.07381928 0.021821551 -0.04827044 -0.019351106 -0.03147759
-0.027646933 -0.039307766 0.47333166 0.025890313 0.31292552 0.14747234 -0.020247243 -0.20220108
-0.11303271 0.05072183 -0.04367523 -0.07737611 -0.087622166 -0.1041811 -0.09311902 -0.02251716
-0.07396356 -0.024267629 0.1374239 0.005051955 0.11266208 -0.038689304 -0.04967163 0.013698226
-0.14104363 0.24582233 0.034291193 -0.09000632 0.11167884 -0.030545445 0.58805305 0.019415341
0.022376169 -0.18109751 -0.1021042 -0.11949172 -0.31945172 0.20354153 -0.033035614 0.11024205
0.09902988 0.008570227 0.09389591 -0.0894845 -0.25966454 0.0021507405 0.0188177 0.18439968
-0.07238858 0.013277363 -0.1722041 -0.08421115 0.14435244 -0.12916335 -0.054340668 0.38092867
-0.08437247 0.05208347 0.50915587 -0.044167485 -0.12861376 -0.01952191 -0.056964584 -0.11750603
0.016673291 0.09699224 -0.07429736 -0.0023382404 -0.03872345 -0.066549614 0.104007915 -0.07471278
0.085368834 -0.16905963 -0.0957296 -0.07981497 0.057459272 0.046643972 -0.01841863 0.016292308
-0.08315575 -0.0752512 0.15911318 -0.031268425 0.14407559 0.073345535 -0.05423802 -0.21118455
0.034103822 -0.15441692 -0.06891978 -0.09117478 0.1652975 -0.011596465 0.5082769 0.19701411
0.02608796 0.5807919 -0.013221459 0.5643313 0.011364062 0.009600974 0.29914877 -0.035971463
0.61051863 -0.28044552 0.108860485 0.04383762 0.0321104 -0.097589865 -0.059310637 -0.06626515
0.0029772443 -0.06005967 -0.31608924 -0.06304156 -0.039489146 0.45671907 0.0017445643 -0.040704366
0.124126755 -0.15045513 -0.05368282 0.64142066 0.0121209845 0.09171203 -0.08312791 -0.26814783
0.0207724 -0.018954119 0.030949557 -0.057511054 -0.032703746 -0.033424847 -0.07453887 0.005385734
-0.039552588 0.13524243 -0.050135408 -0.018048638 -0.020115996 -0.09539807 -0.06112765 0.5539747
-0.047721848 0.15249792 0.015033444 0.19552799 0.5988658 -0.0072144894 -0.219742 -0.013818937
0.021640744 -0.17351899 -0.028431978 0.12662287 -0.045818184 -0.012114265 0.18597971 0.095086254
-0.13125104 0.03310586 -0.009201003 0.053628407 0.16488124 0.1885392 0.014025343 -0.038064748
0.14525656 0.0237843 -0.022412391 0.110945016 -0.023093656 0.05388373 0.3910236 -0.08639227
0.092738755 0.24493481 -0.089947335 0.015371785 -0.007703542 -0.049093965 0.055430595 -0.18019487
0.029705124 0.5149301 0.026277216 -0.015044031 -0.02999124 -0.044959847 -0.09058251 0.15256469
0.15072618 0.026889352 0.3771562 0.0104725985 -0.11928433 0.011103259 0.66127586 -0.18728669
0.5474456 0.14960589 -0.28711873 0.31261626 0.39904997 0.023468489 -0.032221813 -0.020442404
0.024705052 0.0030441168 -0.030421251 0.5027724 -0.037805088 0.5546472 -0.22998354 0.14398745
00000000: 95cc 9d3e d29c e3bc 7346 66be 8139 2b3d
00000010: 7258 77be c744 e9bc 2cf9 5dbd bd28 e9bd
00000020: 84c1 483d 3785 7ebd a42f 753c 2df6 8b3c
00000030: db70 8ebd 6657 433d ece0 cebc 85fd e53e
00000040: ad33 82be ee3c ee3a 304f 14bd 3a64 2cbe
00000050: 67b1 b33e 7adc ef3d 8b07 a93e b8f1 213d
00000060: 7582 db3c 989c 81bb 47a7 81bd d1f6 e6bc
00000070: 9482 abbd 278c 5cbe 048f 8dbc 6b6d 1f3c
00000080: fa72 35bb 72de 293b 9008 bbbd 902e 973d
00000090: 1cc3 b23c 3ab7 45bd 3686 9ebc a5ee 00bd
000000a0: d27b e2bc 2e01 21bd 8758 f23e ec17 d43c
000000b0: c637 a03e fd02 173e 8cdd a5bc cd0d 4fbe
000000c0: b27d e7bd b2c1 4f3d cce4 32bd 5e77 9ebd
000000d0: 4073 b3bd e75c d5bd 2fb5 bebd e875 b8bc
000000e0: 357a 97bd e8cc c6bc dab8 0c3e df8a a53b
000000f0: 60bb e63d ad78 1ebd 7b74 4bbd 866e 603c
00000100: be6d 10be d9b8 7b3e ec74 0c3d 3c55 b8bd
00000110: e0b7 e43d 713a fabc a58a 163f ec0c 9f3c
00000120: 3a4e b73c a071 39be 021c d1bd 13b8 f4bd
00000130: 2d8f a3be 316d 503e 5a50 07bd 95c6 e13d
00000140: 2dd0 ca3d 236a 0c3c 804c c03d a643 b7bd
00000150: c0f2 84be 70f3 0c3b 9427 9a3c 45d3 3c3e
00000160: 7740 94bd 4c89 593c 4656 30be e576 acbd
00000170: 20d1 133e 6643 04be 5294 5ebd 1509 c33e
00000180: 79cb acbd 7a55 553d 0a58 023f f7e8 34bd
00000190: 53b3 03be 6aec 9fbc b253 69bd 00a7 f0bd
000001a0: 6d96 883c dea3 c63d 3729 98bd 2a3d 19bb
000001b0: 7b9c 1ebd 2a4b 88bd 1a02 d53d 0403 99bd
000001c0: dbd5 ae3d f81d 2dbe e10d c4bd 0876 a3bd
000001d0: 6a5a 6b3d c00d 3f3d abe2 96bc 7277 853c
000001e0: 904d aabd 4d1d 9abd 91ee 223e 5213 00bd
000001f0: 8d88 133e 2f36 963d b028 5ebd c340 58be
00000200: 73b0 0b3d 781f 1ebe d025 8dbd d8b9 babd
00000210: bf43 293e 19ff 3dbc 6f1e 023f 11be 493e
00000220: 6bb6 d53c c7ae 143f d29e 58bc 0478 103f
00000230: 5530 3a3c 674d 1d3c 072a 993e d056 13bd
00000240: f34a 1c3f 8e96 8fbe 3ff2 de3d 148f 333d
00000250: 3286 033d 32dd c7bd b6ef 72bd 06b6 87bd
00000260: df1d 433b 2101 76bd 73d6 a1be ef1b 81bd
00000270: 5fbf 21bd 15d7 e93e dda9 e43a 9fb9 26bd
00000280: 2b36 fe3d e910 1abe 84e2 5bbd 2534 243f
00000290: 1897 463c 84d3 bb3d f73e aabd ac4a 89be
000002a0: e12a aa3c ab45 9bbc ed89 fd3c b690 6bbd
000002b0: 5df4 05bd 7ee8 08bd d6a7 98bd d07a b03b
000002c0: e501 22bd fe7c 0a3e c95a 4dbd bdda 93bc
000002d0: 4dca a4bc 1060 c3bd fd60 7abd 49d1 0d3f
000002e0: fc77 43bd 6a28 1c3e d64e 763c 7d38 483e
000002f0: 454f 193f 8667 ecbb 0c04 61be d368 62bc
00000300: ee47 b13c f6ae 31be 2eea e8bc 6da9 013e
00000310: d9ab 3bbd e97a 46bc 7771 3e3e 95bc c23d
00000320: ac66 06be 039a 073d cebf 16bc 76a9 5b3d
00000330: a1d6 283e 6c10 413e 8dca 653c c8e9 1bbd
00000340: 23be 143e 4bd7 c23c 319a b7bc 2437 e33d
00000350: e82e bdbc 30b5 5c3d 3f34 c83e 6eee b0bd
00000360: d1ed bd3d 31d0 7a3e 4f36 b8bd f0d9 7b3c
00000370: fe6d fcbb c116 49bd 310b 633d 0185 38be
00000380: 2958 f33c 76d2 033f 5143 d73c 3d7b 76bc
00000390: 30b0 f5bc d127 38bd 5383 b9bd eb39 1c3e
000003a0: f757 1a3e 0f47 dc3c 9e1a c13e 4395 2b3c
000003b0: 584b f4bd 72ea 353c 6049 293f 15c8 3fbe
000003c0: 6525 0c3f 4932 193e 3a01 93be 3d0f a03e
000003d0: 4750 cc3e fd40 c03c 05fb 03bd d476 a7bc
000003e0: 4062 ca3c ce7f 473b fd35 f9bc b1b5 003f
000003f0: 82d9 1abd 5cfd 0d3f ce80 6bbe 7271 133e

linearmid2.weight f4 [256, 256]
0.3684586 0.05920303 -0.082431786 -0.07849665 0.01921305 0.044357013 0.09672641 0.04900481
0.06784507 -0.1722365 -0.002160117 -0.052130047 0.08367507 0.22198209 -0.018371008 0.13805069
-0.0031208624 0.0681897 -0.066517256 0.12009433 0.05646431 -0.12661248 0.03947251 0.04547503
0.09027551 0.03606259 -0.038636405 -0.030892374 0.15675361 -0.071572535 0.046995707 0.050932363
-0.038389526 -0.0069905743 0.052756485 -0.0953167 0.087566696 -0.058389384 -0.05401974 -0.019552115
0.0049559176 -0.12361544 0.09802116 -0.081959814 0.073277466 -0.007896941 -0.055557262 -0.008488901
0.022532543 -0.006906175 0.09509239 0.051095776 -0.08147346 -0.13383338 0.009378972 0.0729819
0.00424004 0.0441947 0.018618623 0.16419184 0.030550485 0.08745206 -0.002948706 -0.12916325
0.08456666 0.041775152 0.02394151 0.047079604 0.22711143 0.049406245 0.23917045 -0.024779908
0.005307164 0.05945277 -0.026948957 0.046608478 0.1039845 -0.09613844 -0.03221665 0.053431686
-0.22661702 0.0923195 -0.011880775 0.004463917 0.043544386 -0.05194715 -0.021849506 0.2051065
0.117001384 -0.049444456 -0.0059264316 -0.11687676 0.010367359 -0.03335167 0.038661357 0.053833902
0.054464493 -7.786183e-06 0.075704955 0.0065424964 0.05593885 0.0662026 -0.05202081 -0.04906719
-0.010305852 -0.07875007 0.09749295 0.065778695 0.012860946 0.08845207 0.056020938 0.037326142
0.059083253 0.11143142 0.040160734 -0.121833466 -0.056353264 -0.055632547 0.0154768955 0.0022707358
0.0444624 0.053508185 -0.092673115 0.059706826 -0.09445713 -0.06016629 -0.09650232 -0.04793977
0.061673217 -0.08930914 -0.0011877423 -0.040937055 -0.059907146 -0.012669481 0.105031446 0.12549116
0.09924771 0.035302054 -0.100699544 0.23531964 -0.06913203 0.015452615 0.16331184 -0.04135885
0.15938298 0.06331367 0.061344612 -0.11080616 -0.09062174 0.028304262 -0.10922201 -0.06788465
0.082295716 0.022921251 -0.07282856 0.077854924 -0.09964006 0.14750452 0.07181057 0.08130329
0.05025923 0.0043535414 0.105917856 0.18130545 -0.036249064 0.06806292 -0.08736253 0.07537371
0.053015463 0.0040722946 -0.009251778 -0.065159604 -0.07157088 -0.06400713 0.023363074 0.050494455
0.08386641 -0.014866943 -0.03830109 0.030407008 -0.07086152 0.058418788 0.09723441 0.23025377
0.0471498 0.32939008 -0.058307968 0.025714079 0.23451665 -0.0011456758 -0.0006972392 -0.009662524
0.049853213 -0.02532698 0.0015471841 -0.048022848 0.024803592 -0.09147075 -0.0151673 -0.081941634
-0.06521565 0.0038088544 0.05912608 0.08155333 -0.07756355 0.03131951 0.017105091 0.054942213
0.22329773 -0.08200039 -0.055787712 -0.09782299 -0.032972768 0.06665242 0.28162745 -0.10676602
-0.007969843 -0.04692946 0.068549015 -0.05776695 0.050310355 -0.009238042 -0.0033577192 -0.069745556
-0.05313048 0.11901458 0.08060078 -0.07967605 -0.10020883 -0.09535369 0.094714805 0.0030996685
0.039050132 0.044996507 0.27429152 -0.11952611 0.032359906 -0.093260825 0.3753861 0.012821401
0.08387531 -0.051156443 -0.14331965 0.14093378 0.16369651 0.041095152 0.035151184 -0.017944325
0.09725471 -0.104202054 -0.047676384 0.17310071 -0.061587438 0.25306028 -0.07605983 -0.06695387
00000000: 9ba6 bc3e e07e 723d ffd1 a8bd dac2 a0bd
00000010: b064 9d3c b3af 353d 7f18 c63d 45b9 483d
00000020: 5bf2 8a3d c45e 30be c090 0dbb 5186 55bd
00000030: d65d ab3d 464f 633e cc7e 96bc 295d 0d3e
00000040: 6287 4cbb 0ba7 8b3d 333a 88bd 04f4 f53d
00000050: 1f47 673d b4a6 01be edad 213d 0644 3a3d
00000060: 5ee2 b83d 5eb6 133d 3541 1ebd 0112 fdbc
00000070: 0584 203e 9f94 92bd 927e 403d 749e 503d
00000080: 563e 1dbd 3011 e5bb 2f17 583d 6735 c3bd
00000090: 2b56 b33d b529 6fbd ce43 5dbd c22b a0bc
000000a0: 4065 a23b 182a fdbd 51bf c83d 8cda a7bd
000000b0: 7f12 963d 2c62 01bc 0390 63bd 0815 0bbc
000000c0: 2b96 b83c 324d e2bb cdbf c23d ce49 513d
000000d0: 8fdb a6bd 9e0b 09be 43aa 193c 8977 953d
000000e0: 09f0 8a3b 8005 353d 1586 983c e821 283e
000000f0: 0345 fa3c 111a b33d 143f 41bb 5f43 04be
00000100: 4931 ad3d 6c1c 2b3d fc20 c43c 8bd6 403d
00000110: e68f 683e 345e 4a3d 19e9 743e 3cff cabc
00000120: b8e7 ad3b bf84 733d 0fc4 dcbc 88e8 3e3d
00000130: d3f5 d43d 3be4 c4bd 9bf5 03bd 2fdb 5a3d
00000140: 4b0e 68be 0212 bd3d 95a7 42bc 0d46 923b
00000150: 995b 323d 89c6 54bd bcfd b2bc 7007 523e
00000160: 6c9e ef3d 4586 4abd 8332 c2bb 155d efbd
00000170: dbdb 293c c39b 08bd 5f5b 1e3d f080 5c3d
00000180: 2916 5f3d 67a1 02b7 330b 9b3d 7062 d63b
00000190: 2320 653d 3b95 873d c613 55bd aefa 48bd
000001a0: e0d9 28bc b747 a1bd 62aa c73d fbb6 863d
000001b0: b8b6 523c 5c26 b53d 3676 653d 4ce3 183d
000001c0: 4801 723d 2836 e43d 957f 243d d383 f9bd
000001d0: aed2 66bd f4de 63bd ce92 7d3c a0d0 143b
000001e0: 351e 363d 662b 5b3d 67cb bdbd 258f 743d
000001f0: bd72 c1bd ed70 76bd 02a3 c5bd 7e5c 44bd
00000200: 0e9d 7c3d b6e7 b6bd 05ae 9bba 9dad 27bd
00000210: 3261 75bd a893 4fbc ba1a d73d c180 003e
00000220: 6242 cb3d e398 103d 903b cebd a2f7 703e
00000230: 1895 8dbd f72c 7d3c 383b 273e e667 29bd
00000240: 4b35 233e 99aa 813d 7d44 7b3d 57ee e2bd
00000250: e497 b9bd 57de e73c caaf dfbd 1b07 8bbd
00000260: a88a a83d 59c5 bb3c 2427 95bd 6772 9f3d
00000270: 1610 ccbd 6d0b 173e 6c11 933d 5782 a63d
00000280: 9fdc 4d3d 27a8 8e3b 76eb d83d 23a8 393e
00000290: e679 14bd 9264 8b3d 20eb b2bd 885d 9a3d
000002a0: be26 593d e270 853b c594 17bc 6672 85bd
000002b0: c193 92bd 2c16 83bd eb63 bf3c 46d3 4e3d
000002c0: 27c2 ab3d 7a94 73bc 9be1 1cbd 1e18 f93c
000002d0: d81f 91bd 8a48 6f3d d622 c73d a5c7 6b3e
000002e0: 2620 413d d1a5 a83e 56d4 6ebd 55a6 d23c
000002f0: 2225 703e 802a 96ba eec6 36ba 904f 1ebc
00000300: e232 4c3d 877a cfbc e2ca ca3a 9bb3 44bd
00000310: e730 cb3c 0455 bbbd 4480 78bc 04d1 a7bd
00000320: c88f 85bd f99d 793b 302e 723d 6f05 a73d
00000330: a3d9 9ebd e348 003d fa1f 8c3c 160b 613d
00000340: 29a8 643e d2ef a7bd a881 64bd 6b57 c8bd
00000350: 740e 07bd 1081 883d 7931 903e 25a8 dabd
00000360: f293 02bc 1b39 40bd 6d63 8c3d 0a9d 6cbd
00000370: 3b12 4e3d 285b 17bc 2e0d 5cbb c2d6 8ebd
00000380: 599f 59bd ebbd f33d 0612 a53d 322d a3bd
00000390: 493a cdbd cc48 c3bd d6f9 c13d cf23 4b3b
000003a0: 08f3 1f3d 424e 383d f06f 8c3e 1bca f4bd
000003b0: d28b 043d 88ff bebd 9b32 c03e da10 523c
000003c0: d2c6 ab3d 6b89 51bd 63c2 12be f250 103e
000003d0: 0fa0 273e 6453 283d b0fa 0f3d faff 92bc
000003e0: 7a2d c73d e367 d5bd 5048 43bd 5041 313e
000003f0: 1c43 7cbd 1e91 813e 42c5 9bbd 1c1f 89bd

linearmid2.bias f4 [256]
0.55985296 -0.043028757 -0.22155024 0.4217572 -0.036489345 0.7990606 -0.31419787 0.36083353
0.19308567 0.3970707 -0.013340683 0.5290963 0.15743753 -0.319071 0.2502383 0.305671
-0.2650882 0.19935411 -0.17082134 -0.03824551 0.30357626 -0.16555278 -0.009008723 0.66365385
0.33587575 0.30338147 0.46266127 -0.24678297 -0.10272194 -0.15239064 0.12887102 -0.1947941
0.14845306 -0.09647782 -0.025372574 -0.063138425 -0.22028619 0.32171124 -0.10635714 0.37706858
-0.22748663 0.18862237 -0.07271282 0.1326489 -0.07646599 0.67152375 -0.17974335 0.5181567
0.20535272 0.20645621 -0.09256122 -0.35801533 0.20023686 0.19676526 -0.1332974 0.24480549
-0.17497686 0.19781585 0.4398472 0.18094358 -0.14290321 0.5034766 -0.26625565 0.37963554
-0.124671824 0.39593592 -0.34829327 0.08022657 0.42312378 0.2826768 -0.3468703 -0.077699505
-0.12871802 0.57893765 0.09187247 -0.48452076 -0.17553653 -0.1196169 0.1464204 -0.18209639
0.19294558 0.17547408 0.7313884 0.1247297 0.45866317 0.23326471 0.24927151 0.2888233
-0.14808582 -0.13705514 0.64531523 0.21161145 0.6202911 -0.31667644 -0.4391951 -0.029102642
-0.14620258 0.18245846 -0.43733576 -0.15848865 -0.14550582 0.0811632 -0.18286778 0.49557143
-0.0721334 0.3024661 -0.234234 -0.086954646 -0.2718325 0.36712965 0.18086332 -0.1492588
0.5586339 0.3181625 -0.21087195 0.5762863 0.3628978 0.2207046 0.16298433 -0.015579422
-0.1859625 0.2484877 -0.029219827 -0.38277608 0.3634561 0.21286356 0.31937775 -0.1315514
0.46444678 -0.17459723 0.26903316 -0.13976108 0.18889911 -0.30272436 0.043917693 -0.20812312
-0.33287928 0.17539865 0.60412645 -0.16003358 -0.13666032 -0.07658704 -0.039173495 0.13115847
0.35948977 -0.23135252 0.7052689 0.14962833 -0.3652426 -0.11103338 -0.23209228 0.43192127
0.22805725 -0.23250577 -0.27216253 0.42035213 -0.10754785 0.18613759 0.13538386 0.18091244
-0.11441467 0.22690366 -0.16869898 -0.060955714 0.16105983 0.51754266 -0.021936266 0.6134995
-0.42204386 0.43030545 -0.15550844 -0.11766142 0.21345994 -0.012970667 -0.0201849 0.4172423
-0.03849572 -0.17441137 -0.18360345 -0.3029346 0.54076767 0.14850056 0.24956071 0.2685962
0.18911508 0.1561689 -0.10700772 -0.13087301 0.37478882 -0.095473796 0.08948704 0.58909595
0.3661747 0.28661713 -0.07894458 -0.19752301 -0.0763963 0.26089922 -0.33406582 -0.06568928
0.17873345 -0.25683787 -0.029015131 -0.38680387 0.16614188 0.39938918 -0.09517136 -0.33673018
0.2888503 -0.24807389 0.0780002 -0.095017284 -0.46723908 0.31891888 0.22948168 0.47058192
-0.105388686 -0.17695078 -0.18546508 0.28123355 0.38954076 -0.15802161 0.15869632 0.22550718
-0.18252504 -0.08879533 0.13204329 0.4029816 -0.34469482 0.4456516 -0.06899542 -0.18858445
0.32738686 -0.113434725 0.30335465 0.65232015 -0.34510055 0.28346574 -0.0056399414 -0.05751187
0.14247507 0.41990927 0.6640114 0.0633504 0.36778793 0.54209 -0.018347668 -0.014838325
0.09189913 -0.03166409 0.24153101 0.71604526 0.3516839 0.16930337 -0.019882875 -0.062157463
00000000: 8652 0f3f ec3e 30bd 11de 62be 8ff0 d73e
00000010: da75 15bd 3c8f 4c3f 8bde a0be 2cbf b83e
00000020: 40b8 453e da4c cb3e e192 5abc db72 073f
00000030: 4e37 213e 465d a3be 3c1f 803e e980 9c3e
00000040: a4b9 87be 7c23 4c3e caeb 2ebe 53a7 1cbd
00000050: 596e 9b3e ab86 29be 5399 13bc 38e5 293f
00000060: e8f7 ab3e d154 9b3e f0e1 ec3e adb4 7cbe
00000070: e15f d2bd 4b0c 1cbe c4f6 033e 1b78 47be
00000080: 1404 183e 2a96 c5bd 25da cfbc b84e 81bd
00000090: b492 61be 56b7 a43e c6d1 d9bd 220f c13e
000000a0: 41f2 68be 3926 413e 75ea 94bd 1dd5 073e
000000b0: 339a 9cbd fbe8 2b3f a40e 38be eba5 043f
000000c0: fc47 523e 4269 533e bd90 bdbd c94d b7be
000000d0: e40a 4d3e d57c 493e 1d7f 08be 4aae 7a3e
000000e0: 222d 33be 3d90 4a3e a733 e13e 4649 393e
000000f0: 3855 12be d8e3 003f a952 88be 975f c23e
00000100: f153 ffbd 1db8 ca3e 7f53 b2be d44d a43d
00000110: aea3 d83e 03bb 903e fc98 b1be eb20 9fbd
00000120: a8ce 03be 4235 143f a227 bc3d 1b13 f8be
00000130: d9bf 33be b5f9 f4bd 3bef 153e 7a77 3abe
00000140: 8793 453e 7aaf 333e 453c 3b3f 4972 ff3d
00000150: e6d5 ea3e f2dc 6e3e 0841 7f3e a6e0 933e
00000160: cfa3 17be 2f58 0cbe 6133 253f acb0 583e
00000170: 66cb 1e3f 6a23 a2be 2ede e0be aa68 eebc
00000180: 21b6 15be 64d6 3a3e 79ea dfbe d94a 22be
00000190: 7aff 14be e438 a63d b141 3bbe 8abb fd3e
000001a0: adba 93bd d6dc 9a3e 0adb 6fbe 4715 b2bd
000001b0: a12d 8bbe 6bf8 bb3e 3c34 393e 4dd7 18be
000001c0: a202 0f3f 32e6 a23e d1ee 57be 8087 133f
000001d0: becd b93e 6300 623e 5de5 263e d540 7fbc
000001e0: f46c 3ebe 8f73 7e3e 6b5e efbc 3afb c3be
000001f0: eb16 ba3e e8f8 593e 7b85 a33e 69b5 06be
00000200: f8cb ed3e 9ec9 32be b7be 893e 871d 0fbe
00000210: c56e 413e b0fe 9abe 0ae3 333d 3a1e 55be
00000220: 276f aabe b49b 333e 08a8 1a3f d8df 23be
00000230: aff0 0bbe abd9 9cbd 6374 20bd 684e 063e
00000240: 0b0f b83e ade7 6cbe 818c 343f 2b38 193e
00000250: 1401 bbbe 7865 e3bd 99a9 6dbe c924 dd3e
00000260: d787 693e fe15 6ebe e358 8bbe 6538 d73e
00000270: 0c42 dcbd da9a 3e3e 11a2 0a3e 1c41 393e
00000280: 3d52 eabd 6f59 683e 6dbf 2cbe b3ac 79bd
00000290: deec 243e ad7d 043f afb3 b3bc 4e0e 1d3f
000002a0: 2216 d8be ff50 dc3e 9b3d 1fbe 78f8 f0bd
000002b0: 3e95 5a3e ec82 54bc ce5a a5bc c8a0 d53e
000002c0: b0ad 1dbd e598 32be 8b02 3cbe 3e1a 9bbe
000002d0: c06f 0a3f 8810 183e d88c 7f3e 7185 893e
000002e0: 62a7 413e bdea 1f3e dd26 dbbd 9303 06be
000002f0: 52e4 bf3e c487 c3bd fb44 b73d fece 163f
00000300: 407b bb3e 7bbf 923e b2ad a1bd 7943 4abe
00000310: aa75 9cbd 9594 853e ad0a abbe 1a88 86bd
00000320: e705 373e 4180 83be 24b1 edbc 280b c6be
00000330: 1921 2a3e bd7c cc3e 34e9 c2bd e667 acbe
00000340: 30e4 933e 1507 7ebe 92be 9f3d 6c98 c2bd
00000350: f639 efbe 5649 a33e 3ffd 6a3e 1df0 f03e
00000360: 06d6 d7bd 9632 35be 8fea 3dbe d8fd 8f3e
00000370: e371 c73e 6bd0 21be 4a81 223e 5beb 663e
00000380: d8e7 3abe 53da b5bd 5b36 073e 9b53 ce3e
00000390: d77b b0be 722c e43e 794d 8dbd 481c 41be
000003a0: 409f a73e 7750 e8bd 4d51 9b3e 74fe 263f
000003b0: 05b1 b0be 6c22 913e 42cf b8bb 9191 6bbd
000003c0: fce4 113e 59fe d63e a7fc 293f dbbd 813d
000003d0: b34e bc3e 69c6 0a3f d94d 96bc 721c 73bc
000003e0: 9c35 bc3d 34b2 01bd e853 773e be4e 373f
000003f0: ea0f b43e dd5d 2d3e 69e1 a2bc d398 7ebd

linear2.weight f4 [4, 256]
0.029661393 -0.07165394 -0.10031229 0.06554218 -0.060270716 0.09482808 0.16290157 -0.030379964
-0.04963303 0.036744818 0.040893327 -0.0009589788 0.049657732 0.0068575884 -0.12794235 -0.10302323
-0.027655639 -0.17028888 0.147241 0.013089295 -0.0020275407 0.18452957 0.104934044 0.032464743
-0.026864529 0.056917686 0.0008818741 -0.03251911 0.03459748 0.08633039 -0.08608228 0.027434431
-0.053342033 -0.022775052 0.024059242 -0.014567212 0.0058095935 -0.09033665 0.109958276 -0.16158776
-0.04058189 -0.23870115 0.27834296 -0.1678032 0.0896441 0.16171116 -0.050585162 0.050000962
-0.15180667 -0.14261505 -0.08484123 -0.109554544 -0.24973664 -0.27509844 0.019739885 -0.30652758
-0.08267209 -0.20378023 -0.043015346 -0.15121533 -0.08038474 -0.16728605 -0.068104014 0.069771774
0.094357535 0.027218068 -0.0416187 0.051855613 0.06462344 -0.06680574 -0.0075579565 -0.082357466
-0.051458865 0.20816305 -0.052776057 0.17262256 0.0145905465 0.052754838 -0.14593756 0.023020132
-0.017045546 -0.18508708 0.020966003 -0.041206524 -0.13018699 -0.07396048 -0.06856819 -0.0052195247
0.028440595 0.05328485 0.0942561 -0.0980875 -0.07918886 -0.05065465 0.01555408 -0.08819722
0.024984349 0.053662155 0.09423178 -0.06403667 -0.19390388 -0.21730918 0.1115681 0.14843857
0.0069202315 -0.07069673 0.06064988 -0.0152328545 -0.047202364 -0.088250674 -0.20874718 0.12322856
0.0374421 -0.074249156 -0.038574107 -0.06050733 -0.04337294 -0.0800364 -0.08431609 0.07803142
0.011784369 -0.122439675 -0.1749518 -0.08062865 -0.13420412 -0.25805578 -0.09666986 0.027227035
0.013420507 0.14548974 -0.09796285 -0.1363354 -0.13470069 -0.09930476 -0.01930316 -0.027706629
-0.046494897 0.058122486 -0.02854729 -0.10366213 0.11590747 0.059469085 -0.1523407 -0.18115523
-0.05932231 0.07053476 0.17964734 0.03318454 0.013865753 -0.032830056 -0.014284737 -0.01981069
-0.25878114 0.012966951 0.111626595 0.053584106 -0.09532549 -0.16621342 -0.0798779 -0.22098957
0.036729958 0.015313633 -0.05912139 -0.18082489 -0.12705429 -0.011699063 0.08759329 0.013971878
0.120283596 0.039384827 0.039238963 -0.14973064 -0.11121334 -0.0037964596 -0.059169844 -0.07872378
0.008356604 0.053720385 -0.019869633 -0.07298651 0.36219126 -0.24632023 -0.1209821 -0.053403016
-0.12003874 -0.084238686 0.35702226 -0.005497295 -0.0701307 0.08248543 -0.008236475 -0.05494118
0.080663346 0.21921507 -0.1664028 0.000891139 0.035116687 -0.13128209 0.04763377 0.07660548
-0.06885133 -0.03744128 0.052857608 -0.014560191 -0.26139295 -0.042541504 0.100222476 -0.020638507
-0.21494626 -0.019879933 -0.111959815 -0.020819867 0.059018295 -0.094979845 -0.04696997 -0.087374635
-0.03187898 0.11821419 -0.06708837 -0.005701762 -0.10640508 -0.12976469 -0.12800275 -0.13621633
0.04931701 0.07666404 -0.054728758 -0.014644869 0.0037779463 -0.1058627 -0.012783487 0.009937145
-0.070632 -0.13887052 0.090477936 0.18676807 0.0080820015 -0.030655593 0.011571876 0.23978339
-0.055865087 -0.049428638 0.020325212 -0.06599665 -0.15033315 0.12493931 -0.21162944 0.064002715
-0.07108444 0.044959128 -0.11218683 0.170828 0.022262534 -0.12803848 -0.0680284 -0.10765805
00000000: 73fc f23c 4dbf 92bd 8870 cdbd fa3a 863d
00000010: 6dde 76bd 3935 c23d abcf 263e 67df f8bc
00000020: 014c 4bbd bc81 163d c37f 273d fa63 7bba
00000030: e865 4b3d 9fb5 e03b 5203 03be d8fd d2bd
00000040: 148e e2bc 3560 2ebe 58c6 163e 7b74 563c
00000050: 7de0 04bb 52f5 3c3e a9e7 d63d c0f9 043d
00000060: 0013 dcbc 8522 693d 922d 673a c232 05bd
00000070: 16b6 0d3d fdcd b03d e84b b0bd 2cbe e03c
00000080: 2d7d 5abd bf92 babc e317 c53c 51ab 6ebc
00000090: 675e be3b 6c02 b9bd ce31 e13d 4377 25be
000000a0: 3239 26bd 136e 74be f882 8e3e 9ad4 2bbe
000000b0: 5397 b73d 9c97 253e 6332 4fbd cfcd 4c3d
000000c0: 3573 1bbe ae09 12be 3dc1 adbd 225e e0bd
000000d0: f6ba 7fbe b4d9 8cbe 8ab5 a13c 2ff1 9cbe
000000e0: fc4f a9bd c4ab 50be dc30 30bd 31d8 1abe
000000f0: c1a0 a4bd 094d 2bbe 1e7a 8bbd 81e4 8e3d
00000100: 863e c13d 6df8 de3c 5f78 2abd 8d66 543d
00000110: 4b59 843d 73d1 88bd bca8 f7bb 08ab a8bd
00000120: 88c6 52bd b228 553e b52b 58bd f8c3 303e
00000130: 300d 6f3c 7515 583d a870 15be b794 bc3c
00000140: 1aa3 8bbc 7887 3dbe e5c0 ab3c 2cc8 28bd
00000150: bd4f 05be 9878 97bd 7b6d 8cbd 8c08 abbb
00000160: 40fc e83c 3741 5a3d 5809 c13d 19e2 c8bd
00000170: c52d a2bd 407b 4fbd 8ad6 7e3c bea0 b4bd
00000180: faab cc3c d9cc 5b3d 97fc c03d a825 83bd
00000190: bd8e 46be 4c86 5ebe d17d e43d 4800 183e
000001a0: 1cc3 e23b 72c9 90bd 026c 783d 3993 79bc
000001b0: 4457 41bd c5bc b4bd d2c1 55be 415f fc3d
000001c0: e35c 193d f10f 98bd e2ff 1dbd 89d6 77bd
000001d0: d3a7 31bd 20ea a3bd eaad acbd f0ce 9f3d
000001e0: 3a13 413c a7c1 fabd 9126 33be a220 a5bd
000001f0: ce6c 09be e31f 84be d9fa c5bd 3b0b df3c
00000200: b0e1 5b3c 43fb 143e bfa0 c8bd 829b 0bbe
00000210: faee 09be 4b60 cbbd a921 9ebc 03f9 e2bc
00000220: 6f71 3ebd d811 6e3d 02dc e9bc d04c d4bd
00000230: e560 ed3d db95 733d 33ff 1bbe c280 39be
00000240: f3fb 72bd 8774 903d 79f5 373e 83ec 073d
00000250: 2f2d 633c cf78 06bd 880a 6abc 074a a2bc
00000260: f67e 84be 5673 543c 7c9c e43d 027b 5b3d
00000270: 033a c3bd da33 2abe 0697 a3bd 174b 62be
00000280: 2772 163d 08e6 7a3c 4529 72bd 292a 39be
00000290: 851a 02be 6dad 3fbc 1c64 b33d 4eea 643c
000002a0: 3f57 f63d fc51 213d 09b9 203d fd52 19be
000002b0: d2c3 e3bd 06ce 78bb 145c 72bd ef39 a1bd
000002c0: 23ea 083c e809 5c3d a4c5 a2bc f479 95bd
000002d0: 2271 b93e 5f3b 7cbe 77c5 f7bd 1fbd 5abd
000002e0: dfd6 f5bd 5585 acbd 9fcb b63e a722 b4bb
000002f0: afa0 8fbd 1fee a83d 48f2 06bc 010a 61bd
00000300: d332 a53d ea79 603e 7f65 2abe 539b 693a
00000310: 84d6 0f3d d06e 06be a11b 433d 55e3 9c3d
00000320: ed01 8dbd 075c 19bd 3881 583d de8d 6ebc
00000330: 4cd5 85be 0040 2ebd 7141 cd3d 1612 a9bc
00000340: df1a 5cbe 3edb a2bc 304b e5bd 6d8e aabc
00000350: 2bbd 713d cb84 c2bd 9563 40bd 79f1 b2bd
00000360: 8993 02bd 481a f23d a165 89bd d9d5 babb
00000370: e8ea d9bd 09e1 04be 2713 03be 4b7c 0bbe
00000380: a200 4a3d 0902 9d3d 432b 60bd 08f1 6fbc
00000390: 6c97 773b 8bce d8bd d571 51bc 68cf 223c
000003a0: 83a7 90bd 1334 0ebe 7f4c b93d 2140 3f3e
000003b0: 5f6a 043c 7021 fbbc f797 3d3c c789 753e
000003c0: cad2 64bd af75 4abd 0f81 a63c 4029 87bd
000003d0: eff0 19be 2ee0 ff3d 63b5 58be db13 833d
000003e0: b894 91bd 1027 383d 35c2 e5bd 89ed 2e3e
000003f0: eb5f b63c 851c 03be 7952 8bbd d37b dcbd

linear2.bias f4 [4]
0.29080984 0.27971375 0.08648066 0.08603575
00000000: 07e5 943e a436 8f3e c61c b13d 8333 b03d
